ml-prediction-system-backend-flask/app/data/OptimalNN_model.pt (torch, 610107 bytes, 45 tensors)

network.0.weight f4 [256, 24]
0	0xbe317d78	-0.17333019
1	0xbdaa4b79	-0.083151765
2	0xbe6b9d55	-0.23009236
3	0x3dc28ebe	0.09499882
4	0xbe2363f2	-0.15956095
5	0x3e4599eb	0.19296996
6	0xbe9b0f68	-0.30285192
7	0x3f4d09bb	0.8009297
8	0x3d4da233	0.050203513
9	0x3eb50b93	0.35360393
10	0x3e3f21e4	0.18665272
11	0x3e3f58aa	0.18686166
12	0xbe7371da	-0.237739
13	0x3ea8ffc3	0.3300763
14	0x3eb6b150	0.35682154
15	0x3dce991c	0.10087797
16	0x3de9964c	0.1140562
17	0xbe022c10	-0.12712121
18	0x3e5945a2	0.21217969
19	0xbebdfd1c	-0.3710717
20	0xbe3af5c3	-0.18257813
21	0x3e73e55a	0.2381796
22	0x3dcb4816	0.09925859
23	0xbc6536c9	-0.013990113
24	0xbee7e7ec	-0.4529413
25	0x3df4b2fe	0.119482026
26	0xbda580ad	-0.080811836
27	0xbf2db2e0	-0.67851067
28	0x3e20657e	0.15663716
29	0x3bbd9aba	0.005786267
30	0xbe07662c	-0.13222569
31	0x3ee9f1b3	0.45692214
32	0x3d8ecb27	0.06972342
33	0x3d0bf05f	0.034164783
34	0xbe17c877	-0.14822565
35	0x3d1647e5	0.036689658
36	0xbe426784	-0.189848
37	0x3ec0a25e	0.37623876
38	0xbd92dc7d	-0.07170961
39	0x3dc2e31e	0.095159754
40	0x3f1f4f7c	0.6223066
41	0xbf218bbd	-0.6310385
42	0x3eaab3a7	0.3334019
43	0xbeb6ee9d	-0.35728922
44	0xbea10b8f	-0.3145413
45	0x3ee4dceb	0.44699797
46	0xbe9b5707	-0.30339834
47	0xbe86c99e	-0.26325697
48	0xbdcede10	-0.10100949
49	0xbe671dba	-0.22569934
50	0x3ecf1835	0.40448156
51	0xbefb0130	-0.49024343
52	0xbd87a112	-0.066225186
53	0x3d8d5c6b	0.06902393
54	0xbd59d3e8	-0.053180605
55	0x3f09e806	0.53869665
56	0xbe51d595	-0.20491631
57	0x3e3d85af	0.18508027
58	0x3ea9a4ed	0.3313364
59	0xbe4ce2c2	-0.20008376
60	0x3ec4a28e	0.3840527
61	0x3d4a9d9c	0.049466714
62	0xbc947924	-0.01812417
63	0x3e3b5d76	0.18297371
64	0x3f2fceb5	0.68674785
65	0x3e0fab7c	0.1403026
66	0xbd53e71e	-0.051734082
67	0xbe09b1c3	-0.13446717
68	0xbe0450a9	-0.12921394
69	0xbebe503f	-0.37170598
70	0x3ef31768	0.47478795
71	0xbc49c669	-0.012315371
72	0x3d20fa06	0.03930094
73	0xbd6f9660	-0.05849302
74	0xbd9fcb9a	-0.07802506
75	0x3e2785a5	0.16359575
76	0xbe8b64da	-0.2722538
77	0xbd876b9d	-0.066123225
78	0xbe2425dc	-0.16030067
79	0xbe8dfceb	-0.27732024
80	0xbc9ea75a	-0.019366909
81	0x3d72c385	0.059268493
82	0xbf5d3823	-0.8641378
83	0xbaa9295c	-0.0012906003
84	0xbe1fa4a6	-0.15590152
85	0xbf2b8ab1	-0.670085
86	0xbf6fd14a	-0.93678725
87	0x3e0a4754	0.13503772
88	0x3d21bc42	0.039486177
89	0xbef4ad8c	-0.47788656
90	0xbf0d3c7a	-0.55170405
91	0xbec8582d	-0.39129773
92	0xbedcd9e4	-0.43134987
93	0xbf1728de	-0.59046733
94	0xbeab47e2	-0.3345328
95	0xbe45d475	-0.19319327
96	0xbf19b3ba	-0.60039866
97	0xbe4b223e	-0.19837281
98	0xbe2a640a	-0.16639724
99	0xbefd86d5	-0.4951693
100	0x3e6a0069	0.22851719
101	0xbe4dd18d	-0.20099469
102	0xbe81298f	-0.2522702
103	0x3d94b4e9	0.072610684
104	0x3de4ab38	0.1116547
105	0xbe161e50	-0.14660001
106	0x3e826c37	0.25473186
107	0xbe2e819d	-0.17041631
108	0x3d1a1bbb	0.037624102
109	0xbdc10747	-0.09425216
110	0xbdd7a16e	-0.10528837
111	0x3d420cd7	0.047375526
112	0x3d00fa70	0.031488836
113	0xbe8c0b59	-0.27352408
114	0xbe8defb5	-0.27721944
115	0x3eb343d4	0.35012686
116	0x3d928c2f	0.07155644
117	0xbe9f94d4	-0.31168234
118	0xbf2a7ede	-0.66599834
119	0xbf5bd315	-0.8586896
120	0x3db1a1a6	0.0867341
121	0xbd918a1b	-0.0710642
122	0x3d89e7b7	0.06733649
123	0xbe01dc1b	-0.1268162
124	0x3d84ed74	0.06490603
125	0x3eafddcc	0.34348905
126	0x3d6b5d7b	0.057462197
127	0xbe4576cc	-0.19283599
128	0xbe7150a5	-0.2356592
129	0xbcc8a443	-0.024492389
130	0x3f3ace0d	0.7297066
131	0x3d3437f7	0.043998685
132	0x3d330862	0.043709166
133	0x3ee88d0d	0.45420113
134	0x3ea96547	0.3308508
135	0x3e9fdb6a	0.31222087
136	0xbe81e9f9	-0.2537382
137	0x3e9b942c	0.30386484
138	0x3e0fae0f	0.14031242
139	0xbe1abda5	-0.15111406
140	0xbf2b81cf	-0.6699495
141	0x3e507650	0.20357633
142	0x3e15afb1	0.14617802
143	0x3d2a7456	0.041614853
144	0x3e98fd3b	0.298807
145	0xbe3d61e3	-0.18494372
146	0x3d481141	0.04884458
147	0x3e41909c	0.1890282
148	0x3f1448e5	0.5792373
149	0x3e92f714	0.2870413
150	0x3e73a69b	0.23794024
151	0x3cc5541f	0.024087964
152	0x3e26c3b2	0.1628559
153	0xbe893b55	-0.2680308
154	0xbe8f0317	-0.27932045
155	0xbdc7558e	-0.09733115
156	0x3ec53fa2	0.3852511
157	0xbec047cc	-0.37554777
158	0xbda8b646	-0.08237891
159	0x3ef81b1f	0.48458192
160	0x3eb1c8e9	0.34723595
161	0x3dba8b1a	0.09108563
162	0x3e7a807b	0.24463074
163	0x3dba987b	0.091111146
164	0x3e0730d9	0.13202228
165	0x3d9975ed	0.07493196
166	0x3e24f7eb	0.16110198
167	0x3d907b6d	0.070547916
168	0xbeaa8de7	-0.33311388
169	0x3e044209	0.12915815
170	0x3e8753a6	0.26431006
171	0xbd1858ee	-0.037194185
172	0x3e9e8deb	0.3096765
173	0x3c303748	0.010755368
174	0x3efadf84	0.48998654
175	0xbd71fee9	-0.059080992
176	0xbf1c9526	-0.6116508
177	0x3e512f0a	0.204281
178	0x3b9e2ea0	0.0048273355
179	0xbc00d475	-0.007863154
180	0x3dbaf405	0.09128574
181	0x3e20a7ee	0.1568906
182	0x3dcdeb68	0.10054666
183	0x3d05ad20	0.032635808
184	0xbdddd8e1	-0.10832382
185	0x3a9b2cbe	0.0011838896
186	0xbe1e6ac9	-0.15470423
187	0x3f0a4d97	0.5402464
188	0x3ecdba07	0.4018099
189	0x3e2d214b	0.16907232
190	0xbd6002b0	-0.054690063
191	0xbe8691d7	-0.26283142
192	0x3dcfd766	0.10148506
193	0xbefc7373	-0.4930683
194	0x3df1270b	0.11775025
195	0xbea43dce	-0.32078403
196	0x3de9087d	0.11378572
197	0x3e9c9c9d	0.30588236
198	0xbeb08d10	-0.34482622
199	0x3cb8c828	0.02255638
200	0xbe86d413	-0.26333675
201	0x3e7070e3	0.23480563
202	0x3eccbaf2	0.39986378
203	0x3e2b504b	0.16729848
204	0x3daebd9d	0.085322596
205	0xbe20e2ba	-0.1571149
206	0xbdcc0e96	-0.099637195
207	0xbd3dcf2f	-0.046340164
208	0x3f4522ea	0.770064
209	0xbdeff2e7	-0.11716252
210	0xbee9d6c8	-0.45671678
211	0xbd9c275a	-0.07624693
212	0x3be9fff9	0.00714111
213	0xbebd9993	-0.3703123
214	0x3f3394c9	0.70148903
215	0x3a43c708	0.00074683176
216	0xbe9f6136	-0.31128854
217	0x3d2167d7	0.03940567
218	0xbeedff78	-0.4648397
219	0xbdcf52f0	-0.10123241
220	0x3e862ebd	0.26207533
221	0xbedc6ebe	-0.4305324
222	0x3d2452db	0.04011808
223	0x3e37189e	0.17880484
224	0x3eb6c891	0.35699895
225	0xbf1dbd1c	-0.61616683
226	0x3eab2610	0.33427477
227	0xbe514da2	-0.20439771
228	0xbd50995f	-0.050927516
229	0x3e8fc63c	0.28080928
230	0x3e68a9ac	0.22720975
231	0xbd0340b6	-0.032044135
232	0x3e5a3104	0.2130776
233	0x3e1c97e0	0.1529231
234	0x3f14ab4e	0.5807389
235	0x3ea6e837	0.3259904
236	0x3d525a0a	0.0513554
237	0x3e9fd643	0.31218156
238	0x3e7d5903	0.24740987
239	0x3ec9cf37	0.39415905
240	0x3dd288e1	0.10280014
241	0xbe02b6a5	-0.12764986
242	0x3e177c58	0.14793527
243	0x3e255a0b	0.1614763
244	0xbf1aeaec	-0.6051471
245	0x3dc89cfc	0.097955674
246	0xbef70d30	-0.4825225
247	0xbdf98c85	-0.12185005
248	0xbe642555	-0.22279866
249	0x3e3373b4	0.17524606
250	0xbd2a2c71	-0.04154629
251	0xbe6c3403	-0.23066716
252	0x3e9c0abd	0.30476943
253	0xbe7bbae4	-0.24583012
254	0x3e597710	0.21236825
255	0x3e2dd22b	0.16974704

network.0.bias f4 [256]
0	0xbefd4b44	-0.49471486
1	0xbe8efe8d	-0.27928582
2	0xbf4016b5	-0.7503465
3	0xbe4c3a58	-0.19944131
4	0xbf1953dc	-0.59893584
5	0xbf0a56cf	-0.5403871
6	0xbefad1a8	-0.4898808
7	0xbd3fd1b1	-0.046830837
8	0xbe9a56c1	-0.30144313
9	0x3ec4ff96	0.38476247
10	0xbbaca251	-0.005268373
11	0xbe86ef6f	-0.26354548
12	0xbea4150a	-0.32047302
13	0xbd0d388d	-0.03447776
14	0xbf2f62a2	-0.68509877
15	0xbc9f60f8	-0.019455418
16	0xbebc3a39	-0.3676317
17	0x3d506a39	0.05088255
18	0x3da6ea59	0.08150167
19	0xbec3be3e	-0.3823108
20	0xbeac4f6b	-0.3365434
21	0xbee10c35	-0.43954626
22	0x3d699318	0.057025045
23	0x3df93537	0.12168353
24	0xbe8d8d6d	-0.27646962
25	0xbea0cbb9	-0.31405428
26	0xbef401d8	-0.47657657
27	0x3ea952d8	0.33071017
28	0xbe82fab3	-0.25581893
29	0x3ed707fd	0.41998282
30	0xbe921902	-0.28534704
31	0xbecd4d6d	-0.40098134
32	0xbe989fd4	-0.2980944
33	0xbdb5d5bb	-0.088786565
34	0x3e087dcd	0.13329239
35	0xbe874b93	-0.26424846
36	0x3bf9f4c2	0.0076280544
37	0xbc9632f9	-0.018334853
38	0xbf3275f4	-0.6971123
39	0xbecec5d1	-0.40385297
40	0x3eda8705	0.42681137
41	0xbea78be5	-0.3272392
42	0x3e0fde64	0.14049679
43	0xbdd28db9	-0.10280938
44	0xbebb5437	-0.36587688
45	0xbe82578a	-0.25457412
46	0xbe8d9804	-0.2765504
47	0xbf4dc0f2	-0.80372536
48	0xbef8b382	-0.48574454
49	0xbed23b0c	-0.41060674
50	0x3e71cf1a	0.23614159
51	0x3e903a85	0.28169647
52	0x3e98fef1	0.29882005
53	0xbebdcfc5	-0.37072578
54	0xbd5708f2	-0.052498765
55	0xbf0a48b6	-0.540172
56	0x3cee6316	0.029099982
57	0x3dffc772	0.12489213
58	0xbe69f5aa	-0.2284762
59	0x3dbf81ee	0.09350954
60	0xbef4aa8c	-0.47786367
61	0x3e521067	0.2051407
62	0xbf0fab68	-0.5612092
63	0xbecfa584	-0.40555966
64	0xbf43efb3	-0.76537627
65	0xbe8f8073	-0.28027686
66	0xbca589a8	-0.020207241
67	0x3e30b7b8	0.17257583
68	0xbe775ff6	-0.241577
69	0xbf3cd44e	-0.7376145
70	0xbd3c1ead	-0.045927692
71	0xbebff26d	-0.37489644
72	0xbf2ae75f	-0.66759294
73	0xbf2483af	-0.64263433
74	0xbeb4fe15	-0.353501
75	0xbd13ad7c	-0.03605412
76	0xbeddb506	-0.43302172
77	0x3e9fc7b6	0.31207055
78	0x3e5393b9	0.2066182
79	0xbdf68617	-0.12037294
80	0xbed74342	-0.420435
81	0xbec160e9	-0.3776925
82	0x3df22d50	0.11825049
83	0xbebf4b0d	-0.37361947
84	0x3e19d5fc	0.15023035
85	0xbed1b605	-0.40959182
86	0xbdb4841d	-0.08814261
87	0xbe34b4b7	-0.17647062
88	0x3e84f25b	0.25966153
89	0xbe3b1b2e	-0.18272087
90	0x3e6169a5	0.22012956
91	0xbed014f6	-0.40640992
92	0xbe0c8427	-0.13722287
93	0xbe09be95	-0.13451608
94	0xbe41e37b	-0.18934433
95	0x3e6d0208	0.23145306
96	0x3d2f4d5e	0.042798392
97	0xbef19120	-0.47181034
98	0xbde02029	-0.10943634
99	0xbecffecd	-0.40624085
100	0x3e1432dd	0.14472528
101	0x3ebecf32	0.37267452
102	0xbdd0065a	-0.101574615
103	0x3ee0fd71	0.4394336
104	0xbebd1a8d	-0.3693432
105	0xbd40137e	-0.04689359
106	0xbe9ea6f2	-0.30986744
107	0xbeba21df	-0.36353967
108	0xbefc9b7b	-0.49337372
109	0x3e64b03f	0.22332858
110	0xbe9ffb6f	-0.31246516
111	0xbed477a8	-0.4149754
112	0xbd845dab	-0.06463178
113	0x3e58d942	0.21176627
114	0xbef85679	-0.48503473
115	0xbf35c196	-0.70998514
116	0xbf28081a	-0.6563736
117	0x3e939ba9	0.28829697
118	0xbea230ae	-0.31677765
119	0x3eb3bb83	0.35103998
120	0x3e200ba0	0.15629435
121	0xbf035158	-0.51295996
122	0xbdffaec1	-0.124845035
123	0xbe69cc74	-0.22831899
124	0xbe9b60d1	-0.30347303
125	0xbe9e36ea	-0.3090127
126	0xbe143f42	-0.14477256
127	0x3e02c6fe	0.12771222
128	0xbe3eec50	-0.18644834
129	0x3ca2c39b	0.019868663
130	0x3d9b952c	0.07596812
131	0x3e07e548	0.13271058
132	0xbe7b1b2f	-0.24522088
133	0x3e010918	0.12601125
134	0x3dcf59e3	0.101245664
135	0xbe7eb400	-0.24873352
136	0xbec1d6b6	-0.37859124
137	0xbc3d2b3d	-0.011545953
138	0xbe27223f	-0.16321658
139	0xbebabbf7	-0.3647153
140	0xbe3c07f6	-0.18362412
141	0xbe7e7a8e	-0.24851438
142	0xbf2e344a	-0.68048537
143	0xbd036a82	-0.032083996
144	0xbf080d24	-0.5314505
145	0xbcc81c13	-0.02442745
146	0xbe87bcb1	-0.26511148
147	0xbe55d679	-0.20882596
148	0xbee6e359	-0.45095327
149	0x3f06757c	0.52523017
150	0x3e163e1a	0.14672127
151	0xbe4f68ac	-0.20254773
152	0x3e5cb04b	0.21551625
153	0xbd070f90	-0.032973826
154	0xbefeaf6f	-0.4974322
155	0xbe1047dd	-0.14089914
156	0xbe2f07e1	-0.1709285
157	0x3f16a744	0.5884898
158	0x3ee019c6	0.43769664
159	0x3d28f015	0.041244585
160	0xbe65b9fe	-0.22434232
161	0xbdfc3535	-0.12314836
162	0xbd94f1c5	-0.072726764
163	0x3e031a7d	0.12803073
164	0xbeddf3da	-0.43350106
165	0x3e5b270c	0.21401614
166	0x3e758d31	0.23979641
167	0xbe85be5a	-0.2612179
168	0x3cd08e58	0.0254585
169	0x3d46e735	0.04856034
170	0xbdb6b8d9	-0.08921976
171	0xbe022a60	-0.12711477
172	0x3eb838d8	0.35980868
173	0xbdfb2060	-0.122620344
174	0xbede8689	-0.43462017
175	0x3dd1a2cd	0.1023613
176	0xbe0d8aa3	-0.13822417
177	0xbd24e5c9	-0.040258203
178	0xbda9f223	-0.08298137
179	0xbe8a1c9d	-0.26974955
180	0x3f3291c3	0.69753665
181	0xbe76d51a	-0.2410473
182	0xbeb8bae3	-0.36080083
183	0xbf0dc245	-0.55374557
184	0xbe071323	-0.13190894
185	0xbe503e97	-0.20336376
186	0xbd8fc8de	-0.07020734
187	0xbdd1f2cf	-0.1025139
188	0xbec47103	-0.3836747
189	0xbebdd07c	-0.37073123
190	0xbe88678e	-0.26641506
191	0xbd419cbb	-0.04726861
192	0x3db0ab4b	0.086264215
193	0xbf5aee5c	-0.8551996
194	0x3ea6e6e7	0.3259804
195	0xbd54ef76	-0.05198618
196	0xbc2d11d8	-0.010563336
197	0x3e5ef8a8	0.21774542
198	0xbe7639e1	-0.24045517
199	0x3e40c525	0.18825205
200	0x3d84a0aa	0.06475957
201	0xbe47534e	-0.19465372
202	0x3daf6286	0.08563714
203	0xbf0d1eb6	-0.55124986
204	0xbd8c152a	-0.06839974
205	0xbe633105	-0.22186668
206	0xbeda887c	-0.42682254
207	0xbeb277b1	-0.34856942
208	0xbed9d8bf	-0.42548177
209	0xbe1eb487	-0.15498553
210	0xbcffea81	-0.03123975
211	0x3e19c2cc	0.15015715
212	0xbe1b404c	-0.15161246
213	0xbea0e869	-0.31427315
214	0x3ac244ca	0.0014821526
215	0x3d703967	0.058648493
216	0xbef704be	-0.48245806
217	0xbec7afda	-0.39001352
218	0x3e04d097	0.12970196
219	0xbf11d9df	-0.5697307
220	0x3cc2ce14	0.023779906
221	0xbeef25c1	-0.4670849
222	0xbdb173a8	-0.08664638
223	0x3d8ca57d	0.06867502
224	0xbee75f06	-0.45189685
225	0xbe0e42ce	-0.13892671
226	0x3e799223	0.24372153
227	0xbf0810f4	-0.5315087
228	0xbe437e0f	-0.19091056
229	0xbe8bee77	-0.27330372
230	0x3e4b1c48	0.19835007
231	0x3e88cfa8	0.2672093
232	0xbe406610	-0.18788934
233	0xbd56331a	-0.052294828
234	0x3e5be801	0.21475221
235	0xbf3a682f	-0.7281522
236	0x3c630b2c	0.013857644
237	0xbe9c1613	-0.3048559
238	0xbf25bba2	-0.6473943
239	0xbded852a	-0.11597665
240	0x3eada62e	0.33915848
241	0xbf467180	-0.7751694
242	0xbedf6e60	-0.43638897
243	0xbe9ea58a	-0.3098567
244	0xbe581987	-0.21103488
245	0x3c5e3284	0.013561849
246	0xbef27585	-0.47355285
247	0x3ca63640	0.02028954
248	0x3e358bce	0.17729113
249	0xbecf8860	-0.40533733
250	0xbe845b56	-0.25850934
251	0xbec777c8	-0.38958573
252	0xbea06fa3	-0.31335172
253	0xbefad3a7	-0.48989603
254	0x3e81b22a	0.2533124
255	0x3e0374ad	0.12837477

network.2.weight f4 [256]
0	0x3f7ddfe5	0.9916976
1	0x3f9b6228	1.213933
2	0x3f8003a3	1.000111
3	0x3faf4405	1.3692633
4	0x3f757f47	0.95897335
5	0x3eed3a6b	0.46333632
6	0x3f74ccbd	0.95624906
7	0x3e6a9885	0.22909744
8	0x3faa4e03	1.3305057
9	0x3f1cf0f1	0.6130515
10	0x3f5a2448	0.8521161
11	0x3f94c392	1.1622183
12	0x3f766652	0.9624988
13	0x3f90b4b6	1.1305149
14	0x3f51bdda	0.81930315
15	0x3ebcf7db	0.3690785
16	0x3f6288aa	0.8848978
17	0x3f7fb1a7	0.9988045
18	0x3ef3685b	0.47540554
19	0x3f8c1770	1.0944653
20	0x3f83f862	1.0310175
21	0x3f77b80b	0.967652
22	0x3fa8d03f	1.3188552
23	0x3f90b3fb	1.1304926
24	0x3e84ee2d	0.25962964
25	0x3f391d4e	0.7231034
26	0x3f53bbd9	0.8270851
27	0x3f3db806	0.7410892
28	0x3fbcd732	1.4753172
29	0x3f63b174	0.88942647
30	0x3f65c543	0.8975412
31	0x3f9bba95	1.2166315
32	0x3f9a462e	1.2052667
33	0x3fa07bbf	1.2537764
34	0x3fa8128c	1.313066
35	0x3fccb09e	1.5991399
36	0x3f7cd9bb	0.9876973
37	0x3f4b8f12	0.7951518
38	0x3fa24429	1.2677051
39	0x3f80beea	1.0058262
40	0x3f3d8e9a	0.7404572
41	0x3f8276b6	1.0192478
42	0x3f79d22a	0.9758631
43	0x3f952525	1.1651961
44	0x3f871671	1.0553724
45	0xbb4acf25	-0.0030946222
46	0x3f7f2d5f	0.99678606
47	0x3f2aa6aa	0.6666056
48	0x3f67a997	0.9049315
49	0x3f19f597	0.60140365
50	0x3f5e2370	0.86772823
51	0x3f672a99	0.90299374
52	0x3f8ec29b	1.1153139
53	0x3e99514c	0.29944837
54	0x3f51e72e	0.8199338
55	0x3f75875e	0.9590968
56	0x3f41f95c	0.7577112
57	0x3f753056	0.9577688
58	0x3f23b532	0.6394836
59	0x3f40993d	0.75233823
60	0x3f940128	1.1562853
61	0x3fa23a4b	1.267404
62	0x3f92e079	1.1474754
63	0x3f66f05a	0.902105
64	0x3f1d5a3e	0.61465824
65	0x3f853348	1.0406275
66	0x3f0abf76	0.54198396
67	0x3f87a3f8	1.0596914
68	0x3fb5bb74	1.4197831
69	0x3fbe63f0	1.4874249
70	0x3f0b3395	0.5437558
71	0x3f771598	0.96517324
72	0x3f8f8bd9	1.1214553
73	0x3f50e2f6	0.81596315
74	0x3f2a1b00	0.6644745
75	0x3f76279f	0.96154207
76	0x3ecb6ac1	0.39729884
77	0x3f8d0886	1.1018226
78	0x3f7ab762	0.9793607
79	0x3f995d44	1.1981587
80	0x3f951c6a	1.1649296
81	0x3fc44b53	1.5335487
82	0x3f89863b	1.0744089
83	0x3fab0a99	1.3362609
84	0x3f47b1e9	0.78005844
85	0x3f2b8053	0.6699268
86	0x3f8a2301	1.0791932
87	0x3f8cd613	1.100283
88	0x3f92e682	1.1476595
89	0x3f162d4f	0.58662885
90	0x3f90d99d	1.131641
91	0x3f33bc7f	0.702095
92	0x3f5bb5a0	0.8582401
93	0x3f21ff03	0.6327974
94	0x3f0615ca	0.52377
95	0x3f7da912	0.99086106
96	0x3f8b3a2b	1.0877126
97	0x3fa73a38	1.3064642
98	0x3f6f327d	0.93436414
99	0x3f910693	1.1330131
100	0x3f6a9b1a	0.91642916
101	0x3f76ae9a	0.9636017
102	0x3fa8fabb	1.3201517
103	0x3f7fef77	0.9997477
104	0x3fca1dbe	1.5790327
105	0x3f6f36ff	0.9344329
106	0x3f924a1d	1.1428868
107	0x3f8f902c	1.1215873
108	0x3f8ac879	1.0842429
109	0x3fadbd74	1.3573442
110	0x3f328fb2	0.6975051
111	0x3f829e22	1.0204508
112	0x3f883fa6	1.0644424
113	0x3f1a68a4	0.6031592
114	0x3ec5208d	0.38501397
115	0x3f4fc688	0.8116231
116	0x3fa79a07	1.309388
117	0x3f428210	0.7597971
118	0x3f9863bc	1.1905437
119	0x3fb906ab	1.445516
120	0x3fa53122	1.2905619
121	0x3f11b845	0.569218
122	0x3f465847	0.7747845
123	0x3f91da62	1.139477
124	0x3f9afdd0	1.2108707
125	0x3fb02381	1.3760835
126	0x3f24dd99	0.6440063
127	0x3f388231	0.72073656
128	0x3f6e4141	0.9306832
129	0x3f0850f7	0.5324854
130	0x3f80689d	1.0031925
131	0x3f8fa330	1.1221676
132	0x3f9b5288	1.2134562
133	0x3fae63ce	1.3624208
134	0x3f95742f	1.1676081
135	0x3fb99d9a	1.4501221
136	0x3f84056f	1.0314158
137	0x3f6a2b05	0.9147189
138	0x3f2050e8	0.62623453
139	0x3f66b961	0.90126616
140	0x3f727d7a	0.9472271
141	0x3faa203e	1.329109
142	0x3fa0e2f1	1.2569257
143	0x3f15047b	0.5820996
144	0x3f0baf3a	0.5456425
145	0x3f487c83	0.7831499
146	0x3f8c2e3d	1.0951611
147	0x3f1d06ab	0.613383
148	0x3f8d93b7	1.1060704
149	0x3f7c7d7d	0.9862898
150	0x3f2ed616	0.6829542
151	0x3f27d457	0.6555838
152	0x3f5c022b	0.8594081
153	0x3f1a5192	0.60280716
154	0x3f7af883	0.9803545
155	0x3f3ce28c	0.73783183
156	0x3f8b0c08	1.0863047
157	0x3f83a56d	1.0284859
158	0x3f4c4c77	0.79804176
159	0x3f41bfaf	0.7568311
160	0x3f404174	0.75099874
161	0x3f803cb2	1.0018523
162	0x3f6942e1	0.91117674
163	0x3f24e8c7	0.6441769
164	0x3f78d130	0.97194195
165	0x3f4e915c	0.8069055
166	0x3f5fcd33	0.87422484
167	0x3faad21b	1.3345369
168	0x3e6e6a34	0.23282701
169	0x3f806340	1.0030289
170	0x3f5ca475	0.8618844
171	0x3f8ab7eb	1.0837377
172	0x3f8e9b84	1.114121
173	0x3fa87642	1.316109
174	0x3fbccb1a	1.4749482
175	0x3f627c5b	0.88471
176	0x3f9eaa08	1.239564
177	0x3f31a820	0.69397163
178	0x3f91e9f8	1.1399527
179	0x3f8bdb22	1.0926249
180	0x3fa10164	1.2578549
181	0x3ee0d044	0.43908894
182	0x3f19aa2c	0.60025287
183	0x3f58fe02	0.84762585
184	0x3f551493	0.8323452
185	0x3f9dfdc1	1.2343065
186	0x3ef129e1	0.47102264
187	0x3f4d3039	0.80151707
188	0x3fce29a0	1.6106453
189	0x3fb43274	1.4077897
190	0x3fb8c33d	1.4434582
191	0x3f8e0a80	1.1096954
192	0x3f5cf8ac	0.86316943
193	0x3f8e77d5	1.113032
194	0x3f825d1d	1.0184666
195	0x3fa11910	1.2585773
196	0x3f7cfe70	0.9882574
197	0x3fa67784	1.3005223
198	0x3f72ae1d	0.94796926
199	0x3f8301b4	1.0234895
200	0x3f8d3532	1.1031859
201	0x3f32adcb	0.6979644
202	0x3f54e25d	0.831579
203	0x3f2785a2	0.6543828
204	0x3faae05b	1.3349718
205	0x3f9945eb	1.1974462
206	0x3f5d63af	0.8648023
207	0x3f9dfca3	1.2342724
208	0x3fabc048	1.3418055
209	0x3f2be6e8	0.6714921
210	0x3fab9555	1.3404948
211	0x3f9bafc3	1.2163013
212	0x3f0f9aba	0.5609547
213	0x3fbaa650	1.4582005
214	0x3f9b0a93	1.2112602
215	0x3f9e7b49	1.2381374
216	0x3f92ae38	1.1459417
217	0x3e745de9	0.23863949
218	0x3eb24a2e	0.3482222
219	0x3f39d1ff	0.72586054
220	0x3f8b9b04	1.0906682
221	0x3f9d4ed0	1.2289677
222	0x3f387023	0.7204611
223	0x3fadc003	1.3574222
224	0x3fbf73a0	1.4957161
225	0x3e8a9ef6	0.27074403
226	0x3fa83ab9	1.3142921
227	0x3f0ff150	0.5622759
228	0x3ee8d9e8	0.4547875
229	0x3f82d33e	1.0220716
230	0x3f9c3a33	1.2205261
231	0x3fa7ab40	1.3099136
232	0x3f948f79	1.1606284
233	0x3f9dffe7	1.234372
234	0x3f6ec24f	0.9326524
235	0x3fa540e9	1.2910434
236	0x3f3f3edf	0.7470531
237	0x3f016c4c	0.5055587
238	0x3f71703a	0.9431187
239	0x3faf1cb1	1.3680631
240	0x3f8a36ee	1.0798013
241	0x3f6db2c7	0.9285092
242	0x3f6e67fd	0.93127424
243	0x3f536dec	0.825896
244	0x3f93a7df	1.1535605
245	0x3f527320	0.82206917
246	0x3f5fb670	0.8738775
247	0x3fb02e57	1.3764142
248	0x3f84153a	1.0318978
249	0x3f9f2bda	1.2435257
250	0x3f78f84b	0.97253865
251	0x3f6060cc	0.876477
252	0x3f68c5ff	0.9092712
253	0x3f5ad97b	0.854881
254	0x3f2b1bc4	0.6683924
255	0x3f2fcb9d	0.68670064

network.2.bias f4 [256]
0	0x3f38abc5	0.721371
1	0x3dd4f442	0.10398151
2	0xbe82819f	-0.25489518
3	0x3d6f6acb	0.058451455
4	0x3ec73e1f	0.38914582
5	0x3f18eff7	0.5974116
6	0xbecdd07b	-0.4019812
7	0xbee73db0	-0.4516425
8	0x3d87ee60	0.06637263
9	0xbf277e2b	-0.6542689
10	0xbdaa31ee	-0.083103046
11	0xbda9f125	-0.08297948
12	0xbedeea83	-0.43538293
13	0xbeed6ffb	-0.46374497
14	0xbe2f1179	-0.17096509
15	0xbe584cf5	-0.21123107
16	0x3f140a76	0.5782846
17	0xbb526d81	-0.0032108726
18	0xbf10c466	-0.5654968
19	0xbe460f36	-0.1934174
20	0xbf200b30	-0.6251707
21	0x3eda50bc	0.4263972
22	0x3d129488	0.03578618
23	0x3f3a9571	0.7288428
24	0xbebd5d83	-0.36985406
25	0x3e96a2b0	0.29420996
26	0x3d704392	0.05865819
27	0xbe118d25	-0.14213999
28	0xbda17d09	-0.07885177
29	0x3ea62218	0.32447886
30	0x3f1ad678	0.60483503
31	0xbe1faf96	-0.15594324
32	0xbeb4ebba	-0.35336095
33	0x3e17e9f9	0.14835347
34	0x3ae2bafe	0.001729816
35	0xbec6c1e3	-0.388198
36	0x3e10612d	0.1409957
37	0xbcc8b38a	-0.024499673
38	0xbe915d49	-0.28391483
39	0xbdf4cc41	-0.11953021
40	0xbf1b4b5c	-0.60661864
41	0x3d07479e	0.033027284
42	0x3f30f512	0.6912395
43	0xbc9ab39c	-0.018884473
44	0xbe030182	-0.12793544
45	0x3e22d8ac	0.15902966
46	0xbe91c47c	-0.28470218
47	0x3d023e65	0.031797785
48	0x3e69bf23	0.22826819
49	0xbd9dde2f	-0.07708394
50	0xbd7aef2c	-0.06126325
51	0x3ce5631d	0.028001362
52	0xbefd6ce4	-0.4949714
53	0xbf5bf5c3	-0.8592188
54	0xbf09f035	-0.5388215
55	0x3e5b7512	0.21431378
56	0xbf393761	-0.72350127
57	0x3e9f8833	0.311586
58	0xbe1e2e98	-0.15447462
59	0xbf51dd24	-0.8197806
60	0x3e98f59f	0.29874894
61	0x3e397ab4	0.18113214
62	0x3f735e6a	0.9506594
63	0xbebe73a0	-0.3719759
64	0x3f14dc1d	0.58148366
65	0x3e4f69ca	0.20255199
66	0x3ea7ed91	0.32798436
67	0xbe9f0d2a	-0.3106473
68	0xbde4b4fa	-0.11167331
69	0xbea2b2a4	-0.31776917
70	0xbd810a6d	-0.06300817
71	0x3f1e8729	0.6192499
72	0xbe6f9577	-0.2339686
73	0x3f0f295e	0.55922496
74	0x3e9a7e7a	0.3017462
75	0xbf2a7b05	-0.6659396
76	0xbebd4d5d	-0.36973086
77	0xbeeb4a7c	-0.45955265
78	0x3e4b28fa	0.1983985
79	0xbc959ff0	-0.01826474
80	0xbe954b0e	-0.29158825
81	0xbecbcd14	-0.398049
82	0xbd350d12	-0.044201918
83	0x3e844532	0.25834042
84	0x3f2e4620	0.6807575
85	0xbe87df09	-0.2653735
86	0x3e30c3f4	0.1726225
87	0xbd5fb349	-0.05461434
88	0x3ed4a483	0.41531762
89	0xbe87affc	-0.26501453
90	0xbf0326ba	-0.5123097
91	0xbeee9355	-0.4659678
92	0xbea8b546	-0.329508
93	0x3f26668a	0.6500021
94	0xbe52e624	-0.20595604
95	0xbe9acf12	-0.30236107
96	0x3e0cf5d7	0.13765655
97	0x3ebc01e0	0.3672018
98	0xbf29edb6	-0.66378343
99	0x3f13a228	0.57669306
100	0xbd5dcdd1	-0.05415136
101	0x3e0a17c0	0.13485622
102	0x3e3b366c	0.18282479
103	0x3e97b81f	0.2963266
104	0xbcaf6170	-0.021408767
105	0xbf2193a4	-0.63115907
106	0x3df9b740	0.12193155
107	0xbea894f1	-0.32926133
108	0x3e64b4ef	0.22334646
109	0xbdf67d4c	-0.12035617
110	0x3e8ed005	0.2789308
111	0xbe9cad92	-0.30601174
112	0xbef8f2cb	-0.48622736
113	0xbec9e8da	-0.39435464
114	0x3e9955eb	0.29948363
115	0xbed93810	-0.42425585
116	0x3d2d6c27	0.04233947
117	0xbdc8053b	-0.09766623
118	0x3d14f75d	0.036368717
119	0x3e4a24cf	0.19740604
120	0xbda62726	-0.08112936
121	0xbf10c039	-0.5654331
122	0xbe1dac66	-0.15397796
123	0xbe0dcbfc	-0.13847345
124	0xbe490cd4	-0.196338
125	0x3e735e01	0.23766328
126	0xbeea478f	-0.4575772
127	0x3ebf24dc	0.3733281
128	0xbf2d68d7	-0.677381
129	0x3efa1a22	0.48848063
130	0x3e2bbb2d	0.1677062
131	0xbdb0fe93	-0.08642306
132	0xbde75784	-0.11295989
133	0xbf0a9c48	-0.54144716
134	0x3f2e724d	0.6814316
135	0x3e95a52e	0.29227585
136	0xbdc5eab3	-0.09663906
137	0x3ebf71d7	0.3739154
138	0x3f5fd91f	0.87440675
139	0x3eeb3f9b	0.45946965
140	0x3e1c0245	0.15235241
141	0xbd8f15f1	-0.06986607
142	0x3e89bef2	0.26903492
143	0x3e96bbe2	0.29440218
144	0xbdb1f865	-0.086899556
145	0x3e563062	0.20916894
146	0xbd95d53b	-0.07316061
147	0xbef99460	-0.48746014
148	0x3f128803	0.5723879
149	0xbd14802f	-0.036255058
150	0x3ef11bee	0.4709162
151	0xbe472b78	-0.19450176
152	0x3f218bc7	0.6310391
153	0xbf154d0d	-0.58320695
154	0x3dfd9ea7	0.12383776
155	0x3f107ea3	0.5644323
156	0x3f22842b	0.6348292
157	0xbeb12a56	-0.34602612
158	0xbf0d18ea	-0.5511614
159	0x3ceabd35	0.028654674
160	0xbe25682e	-0.16153023
161	0x3e930049	0.28711155
162	0x3d26b72f	0.04070204
163	0xbdce4ae0	-0.10072875
164	0xbedddfb6	-0.4333474
165	0xbf3c2e6a	-0.7350832
166	0xbe011309	-0.12604918
167	0xbe68e342	-0.22742942
168	0xbed8632c	-0.42263162
169	0x3c7406f9	0.014894241
170	0xbcac7edd	-0.021056587
171	0xbf0fef7b	-0.56224793
172	0x3ea9a20c	0.33131444
173	0xbe9a8bc5	-0.3018476
174	0xbf2a5bba	-0.66546214
175	0xbf2a2666	-0.6646484
176	0xbf2ccd6a	-0.67500937
177	0x3dba7f6c	0.09106335
178	0xbedab4e7	-0.42716143
179	0xbe5d1911	-0.21591593
180	0x3deaf6d7	0.11472862
181	0xbebe1df8	-0.3713224
182	0x3f423cad	0.75873834
183	0x3eb2850c	0.34867132
184	0x3eb2f326	0.34951133
185	0xbea26478	-0.31717277
186	0xbf56223a	-0.83645976
187	0x3f389cbd	0.72114164
188	0xbf192567	-0.59822696
189	0x3df4a402	0.119453445
190	0x3d8ee1d6	0.069766685
191	0x3ecb86fc	0.39751422
192	0x3e928d5e	0.2862348
193	0xbe8bce50	-0.2730584
194	0xbea8c46b	-0.32962355
195	0xbf1228f4	-0.5709374
196	0x3e53fa39	0.20700921
197	0xbe5f9b73	-0.21836643
198	0xbe590dad	-0.21196623
199	0xbe34789e	-0.17624137
200	0x3b1a646d	0.0023558394
201	0x3c327914	0.010893125
202	0xbe7b1418	-0.24519384
203	0xbe7e9eb7	-0.24865232
204	0x3e0cab8a	0.13737312
205	0xbe9f53d2	-0.31118637
206	0xbd136b3d	-0.035990942
207	0xbe8bc7e1	-0.27300933
208	0x3e8354f5	0.25650755
209	0x3d920b96	0.07131116
210	0xbed18736	-0.4092347
211	0x3e20fed1	0.15722205
212	0xbdf2be06	-0.1185265
213	0xbe2ed905	-0.17074974
214	0xbf005bfc	-0.50140357
215	0x3ed27b4f	0.41109702
216	0x3f2743ef	0.65338033
217	0xbf012efb	-0.5046231
218	0xbe8f7921	-0.28022102
219	0x3f5025de	0.8130778
220	0xbe498cf0	-0.1968267
221	0xbde587e2	-0.11207558
222	0x3ef5bd95	0.47996202
223	0x3f0af9d6	0.5428747
224	0x3e961688	0.29314065
225	0xbef7bb0b	-0.4838489
226	0x3f451cda	0.7699715
227	0xbeb25784	-0.34832394
228	0x3ec60cfa	0.38681775
229	0xbb29a052	-0.0025882912
230	0x3e10307e	0.14080998
231	0x3f2c2c96	0.6725553
232	0xbf117f92	-0.5683528
233	0xbf09ff45	-0.53905135
234	0x3f1ed399	0.6204162
235	0x3ed5791c	0.41693962
236	0xbf8ac271	-1.0840589
237	0x3ce6b8ef	0.028164355
238	0xbeb1096c	-0.345775
239	0xbd3d1afe	-0.04616832
240	0x3ed655d7	0.41862366
241	0xbd8abe1d	-0.067745425
242	0x3eb41492	0.35171944
243	0x3dca7d77	0.09887212
244	0xbf376e07	-0.71652263
245	0xbe0a6987	-0.13516818
246	0x3f4b24b6	0.7935289
247	0xbee55535	-0.4479157
248	0xbee7a997	-0.45246574
249	0x3f2e3f0d	0.6806496
250	0x3e3202ff	0.17383955
251	0xbef5f105	-0.48035446
252	0xbec6d483	-0.3883401
253	0x3ec58fd6	0.385863
254	0xbef0f7fe	-0.47064203
255	0x3efeff8d	0.49804345

network.2.running_mean f4 [256]
0	0x3ed06462	0.40701586
1	0x3f197ac1	0.5995293
2	0x3ea67116	0.32508153
3	0x3f840227	1.0313157
4	0x3ebdea9b	0.37093052
5	0x3ef43ca4	0.47702515
6	0x3ef2ac49	0.47397068
7	0x3f2981f8	0.6621394
8	0x3f16d5c2	0.5891992
9	0x3f78ccde	0.971876
10	0x3f4e6634	0.806247
11	0x3f07df3c	0.53075004
12	0x3f5b7781	0.85729223
13	0x3f9685fa	1.1759636
14	0x3e9dc13f	0.30811498
15	0x3f1b534c	0.60673976
16	0x3f06d160	0.5266323
17	0x3f5fc369	0.8740755
18	0x3f6eea46	0.9332622
19	0x3f0e8695	0.55674106
20	0x3f0c354c	0.54768825
21	0x3f24ee24	0.64425874
22	0x3f854b58	1.0413618
23	0x3f729eaa	0.9477335
24	0x3f301614	0.6878369
25	0x3efb230b	0.49050173
26	0x3ec9b3d3	0.39395007
27	0x3f63804f	0.8886766
28	0x3f5c4d6d	0.8605564
29	0x3f5a8876	0.8536447
30	0x3f21e61a	0.6324173
31	0x3f0b846e	0.54498947
32	0x3f20aba0	0.6276188
33	0x3f2f3a19	0.68448025
34	0x3f67c933	0.9054138
35	0x3f68b1c4	0.9089625
36	0x3f02535e	0.5090846
37	0x3f6ef4f4	0.9334252
38	0x3ea79046	0.3272726
39	0x3f1f9548	0.6233716
40	0x3f5d80ce	0.86524665
41	0x3f17cd3d	0.59297544
42	0x3f514d39	0.8175846
43	0x3f7a54c6	0.97785604
44	0x3ee421fa	0.44557172
45	0x3ee25ac7	0.44209883
46	0x3f505706	0.8138279
47	0x3f00cc2e	0.50311553
48	0x3ef39f46	0.47582453
49	0x3f0180b0	0.50586987
50	0x3f864d5b	1.0492357
51	0x3f7e7c68	0.9940858
52	0x3f81319c	1.0093265
53	0x3f0a8cd7	0.54121155
54	0x3f4c653e	0.79841983
55	0x3f2bb496	0.6707243
56	0x3f82d236	1.0220401
57	0x3f1c4151	0.61037165
58	0x3f3d38be	0.73914707
59	0x3f77b390	0.96758366
60	0x3f1e2615	0.6177686
61	0x3f80ea08	1.0071421
62	0x3f1dba79	0.6161266
63	0x3f37e471	0.7183295
64	0x3e8a7424	0.27041733
65	0x3f1270bb	0.57203263
66	0x3f226b54	0.6344502
67	0x3f30e1cc	0.6909454
68	0x3f4b530e	0.79423606
69	0x3e9e66eb	0.30937895
70	0x3ef4acb6	0.47788018
71	0x3ee9db98	0.4567535
72	0x3f108aab	0.5646159
73	0x3ee90fcd	0.45519868
74	0x3f2d5925	0.6771415
75	0x3f28c80a	0.65930235
76	0x3f3f7226	0.7478355
77	0x3f728272	0.94730294
78	0x3f470f15	0.7775739
79	0x3f4c486b	0.79798
80	0x3eda5350	0.42641687
81	0x3f1f409e	0.62207973
82	0x3f567638	0.8377414
83	0x3f60d5f8	0.8782649
84	0x3fa5f7a7	1.2966202
85	0x3ee6c8ce	0.45075077
86	0x3f4b64ae	0.794505
87	0x3f1f7ade	0.62296855
88	0x3f3fb50e	0.7488564
89	0x3f2790c9	0.654553
90	0x3f4fc688	0.8116231
91	0x3f475c0c	0.7787483
92	0x3f756b15	0.9586652
93	0x3f58e101	0.8471833
94	0x3f1a1978	0.6019511
95	0x3f91d51d	1.1393162
96	0x3f718276	0.9433969
97	0x3ee9051a	0.45511705
98	0x3f2449ea	0.64175284
99	0x3f02aba0	0.5104313
100	0x3f28f6e3	0.6600172
101	0x3fcadf5f	1.5849417
102	0x3f49c2f0	0.78813076
103	0x3f9b1d38	1.2118292
104	0x3f101df9	0.56295735
105	0x3f3166ec	0.6929767
106	0x3f58345e	0.84454906
107	0x3ee8a859	0.4544094
108	0x3ef91554	0.48649085
109	0x3f542700	0.8287201
110	0x3f0e9ac9	0.55704933
111	0x3f290e0b	0.6603705
112	0x3f392727	0.72325367
113	0x3f3bdbb9	0.73382145
114	0x3ee6c291	0.45070317
115	0x3efafea0	0.49022388
116	0x3f104eef	0.56370443
117	0x3f4dd29c	0.8039949
118	0x3f6d5485	0.9270709
119	0x3f667eef	0.90037435
120	0x3fa92eb4	1.3217378
121	0x3eeaa0e0	0.45825863
122	0x3f2303f8	0.6367793
123	0x3f10c2a5	0.56547004
124	0x3f2ce46c	0.67536044
125	0x3f98a18d	1.1924301
126	0x3f138054	0.5761769
127	0x3f9144f2	1.1349165
128	0x3f4bbac6	0.7958187
129	0x3f13135d	0.5745142
130	0x3f859668	1.0436525
131	0x3f5c57d4	0.86071515
132	0x3f36d771	0.7142249
133	0x3f32f63d	0.6990698
134	0x3f607cec	0.87690616
135	0x3f137fe1	0.57617
136	0x3f4b1fb3	0.79345244
137	0x3f4d7d8d	0.802697
138	0x3f26c0c5	0.6513789
139	0x3f1ec41a	0.6201798
140	0x3f52f646	0.82407033
141	0x3f0076f3	0.501815
142	0x3efe7fb4	0.49706805
143	0x3f10576e	0.5638341
144	0x3ef67881	0.48138812
145	0x3f342002	0.7036134
146	0x3f24debe	0.6440238
147	0x3f341145	0.7033885
148	0x3ee06c6d	0.43832722
149	0x3fd782f4	1.6836839
150	0x3f56596d	0.837302
151	0x3f113b42	0.56731045
152	0x3f3e264e	0.742772
153	0x3f594fbd	0.84887296
154	0x3f2db125	0.67848426
155	0x3f569d5b	0.83833855
156	0x3ef42620	0.47685337
157	0x3f535847	0.82556576
158	0x3f7ebd78	0.99507856
159	0x3f27ded9	0.65574414
160	0x3f454680	0.770607
161	0x3f50951c	0.8147752
162	0x3f0286b3	0.50986785
163	0x3f4a9542	0.79134
164	0x3f335fe5	0.700682
165	0x3f84b193	1.0366691
166	0x3fa0362b	1.2516531
167	0x3f17f814	0.5936291
168	0x3f1bf988	0.6092763
169	0x3f40c959	0.7530723
170	0x3f18742a	0.5955225
171	0x3f44072e	0.76573455
172	0x3f6d18af	0.9261579
173	0x3f2475f4	0.6424248
174	0x3ed5db33	0.41768798
175	0x3f48363f	0.7820777
176	0x3f43b7ee	0.7645253
177	0x3f670f00	0.90257263
178	0x3f2d7117	0.67750686
179	0x3f2bc6d4	0.6710026
180	0x3f91850d	1.1368729
181	0x3f0b78dd	0.544813
182	0x3edb61f4	0.4284817
183	0x3eeddaeb	0.46456084
184	0x3f0c3b60	0.547781
185	0x3f2b6edd	0.6696604
186	0x3f400305	0.7500461
187	0x3f3f336f	0.74687856
188	0x3efab591	0.4896665
189	0x3f07873a	0.52940714
190	0x3f6e136b	0.9299838
191	0x3f23338f	0.6375055
192	0x3f879602	1.0592654
193	0x3eb16021	0.34643653
194	0x3f563a0f	0.8368234
195	0x3f690ff0	0.91039944
196	0x3f8cd4e0	1.1002464
197	0x3f84bdd8	1.0370436
198	0x3f340743	0.7032358
199	0x3f84bb0c	1.0369582
200	0x3f3208c4	0.69544625
201	0x3f0cdbe1	0.5502301
202	0x3f4c284d	0.79748994
203	0x3f1693b3	0.5881912
204	0x3f88ea47	1.0696496
205	0x3f03a389	0.5142141
206	0x3f269336	0.65068376
207	0x3f264da8	0.64962244
208	0x3edb9d16	0.42893285
209	0x3f3d2bf7	0.7389521
210	0x3f302638	0.6880832
211	0x3f7251a0	0.946558
212	0x3f51ccba	0.8195301
213	0x3ebdbc5e	0.37057775
214	0x3f0cecff	0.5504913
215	0x3f0dab00	0.5533905
216	0x3edf33f4	0.43594325
217	0x3ec447be	0.38335985
218	0x3f522b56	0.82097375
219	0x3edb11c4	0.42786992
220	0x3f8a7010	1.0815449
221	0x3ec7e10f	0.39038894
222	0x3f1aa5d8	0.6040931
223	0x3f785337	0.97001976
224	0x3f4ea320	0.8071766
225	0x3f378667	0.71689457
226	0x3f8a9cad	1.0829064
227	0x3f0b9e63	0.54538554
228	0x3f23a475	0.63922817
229	0x3ef6391f	0.48090455
230	0x3f43102e	0.76196563
231	0x3f60c0d9	0.8779426
232	0x3f0a39be	0.5399436
233	0x3f312eed	0.6921223
234	0x3f40ebbb	0.75359696
235	0x3ee22b02	0.44173437
236	0x3f65de64	0.89792466
237	0x3eef6522	0.46756846
238	0x3e676662	0.2259765
239	0x3f48168b	0.781594
240	0x3f52e86b	0.8238589
241	0x3ef43655	0.47697702
242	0x3f234ac8	0.6378598
243	0x3efece54	0.4976679
244	0x3f6acee8	0.91721964
245	0x3f430413	0.7617809
246	0x3f042326	0.5161613
247	0x3f6714b6	0.9026598
248	0x3f8235a1	1.0172616
249	0x3f4e8f28	0.8068719
250	0x3ef42965	0.47687832
251	0x3f23e1d4	0.6401646
252	0x3f166e64	0.5876219
253	0x3f221ec4	0.63328195
254	0x3fa1ecc3	1.2650379
255	0x3f4a690f	0.79066557

network.2.running_var f4 [256]
0	0x3f93a0ab	1.1533407
1	0x3f49452b	0.78621167
2	0x3f378bc9	0.7169767
3	0x3ff731c7	1.9312066
4	0x3eed25df	0.46317956
5	0x3fa85ae4	1.3152738
6	0x3f843699	1.0329162
7	0x3fe99d83	1.8251194
8	0x3fb50292	1.4141409
9	0x3fa0f1cd	1.2573792
10	0x401dd74a	2.4662652
11	0x3f5074a0	0.81427956
12	0x40033f70	2.050747
13	0x3fbb402b	1.4628958
14	0x3f1ba3b4	0.60796666
15	0x3f6f41c0	0.934597
16	0x3f2e77b0	0.6815138
17	0x3fbfa1e4	1.497128
18	0x3fd080b9	1.6289283
19	0x3f32bed5	0.69822437
20	0x3f0d016a	0.5508028
21	0x3f4ffe71	0.8124762
22	0x3ff60437	1.9220036
23	0x400cec43	2.2019203
24	0x3fb3a296	1.4033992
25	0x3ef55cd0	0.47922373
26	0x3eeec63d	0.4663562
27	0x3f7b5e1b	0.9819047
28	0x3f93f19f	1.1558112
29	0x3f4207bf	0.7579307
30	0x3f5a57cc	0.8529022
31	0x3fb48d10	1.4105549
32	0x3f93469f	1.1505927
33	0x3f36b8d8	0.713758
34	0x3fc154cd	1.5104004
35	0x3fa0a59d	1.2550541
36	0x3f5029cd	0.8131378
37	0x3fc0e739	1.5070564
38	0x3f1d52ce	0.61454475
39	0x3f8a9fa0	1.0829964
40	0x3f8837b8	1.0642004
41	0x3f921463	1.1412472
42	0x3f760492	0.96100724
43	0x3fe08d86	1.754319
44	0x3f2e6200	0.68118286
45	0x3f87befc	1.0605159
46	0x402891f1	2.6339076
47	0x3fd6f864	1.6794553
48	0x3f65db83	0.89788073
49	0x3f9b990f	1.2156085
50	0x3fb3a1b1	1.4033719
51	0x3fe114c7	1.7584466
52	0x3fc7c9f7	1.560851
53	0x3fd4bcab	1.6620077
54	0x400617f4	2.095212
55	0x3fc2e833	1.5227112
56	0x4036e31b	2.8576114
57	0x3f427b50	0.7596941
58	0x4010ce28	2.2625828
59	0x403cc14d	2.9492981
60	0x3f7b098b	0.98061436
61	0x3f9791ec	1.1841407
62	0x3f7ba542	0.9829904
63	0x3fc91cb9	1.571189
64	0x3eb2d5e4	0.3492881
65	0x3f959845	1.1687094
66	0x3f9bf5a4	1.2184339
67	0x3f5dbe7c	0.8661878
68	0x3fc6cfcf	1.5532168
69	0x3f23dc9b	0.6400849
70	0x3f0143c8	0.5049405
71	0x3f8c9b13	1.0984825
72	0x3fa01a66	1.2508056
73	0x3f8eb5e1	1.1149255
74	0x3f89b8cb	1.0759519
75	0x3f7ddc57	0.99164337
76	0x402d552d	2.7083237
77	0x3fdc0204	1.7188115
78	0x3f841640	1.031929
79	0x3fd4c979	1.6623985
80	0x3f12f4a7	0.5740456
81	0x3fb344d7	1.4005383
82	0x3fb880ba	1.4414284
83	0x400a3dd8	2.1600246
84	0x3fea9123	1.8325542
85	0x3f3fd4e4	0.7493422
86	0x3fa20ecf	1.2660769
87	0x3f9cbdcd	1.2245423
88	0x3f6fd948	0.9369092
89	0x3fa63416	1.2984645
90	0x3f477521	0.779131
91	0x3f8febd0	1.1243839
92	0x4012e37e	2.295135
93	0x3fda969c	1.7077212
94	0x3f8fa847	1.1223229
95	0x3fc8bb10	1.5682087
96	0x3f8d4c8f	1.1038989
97	0x3f7392e8	0.95146036
98	0x3f927a6b	1.1443609
99	0x3f686924	0.9078543
100	0x3f9fd9cb	1.248834
101	0x4007853f	2.1175077
102	0x3f956dfe	1.1674192
103	0x40180974	2.375577
104	0x3f9b04c6	1.2110832
105	0x3f720dbc	0.94552207
106	0x3f75b7b3	0.9598343
107	0x3f2ef9d0	0.68349934
108	0x3fc40009	1.5312511
109	0x3f8b702a	1.0893605
110	0x3f34fe8f	0.70700926
111	0x3fc4bb47	1.5369653
112	0x3f9ceeb0	1.2260342
113	0x3f87396a	1.0564396
114	0x3fc25121	1.5181009
115	0x3fa9e75d	1.3273731
116	0x3f20f9fa	0.62881434
117	0x3fb76860	1.4328728
118	0x3f9f4694	1.2443414
119	0x3f81be8e	1.0136278
120	0x3fcfdf9b	1.6240114
121	0x3efd47d7	0.49468872
122	0x3fdbeff6	1.7182605
123	0x3f153f6d	0.58299905
124	0x3fd5bc35	1.6698061
125	0x3feee493	1.8663505
126	0x3f54c771	0.83116823
127	0x3f905386	1.1275489
128	0x40108f3d	2.2587426
129	0x3fdbac82	1.716202
130	0x3fa99b0a	1.3250439
131	0x3fbc5f12	1.4716513
132	0x3fd6d1e3	1.6782802
133	0x3f73d04b	0.95239705
134	0x3f8fd4d1	1.1236821
135	0x3f1fc6c9	0.624127
136	0x401fd661	2.4974597
137	0x3f89bff0	1.07617
138	0x3fe6502c	1.7993217
139	0x3f5ad995	0.85488254
140	0x3fa51f56	1.2900188
141	0x3f6df40f	0.9295053
142	0x3f4201b2	0.75783837
143	0x3f842e3a	1.0326607
144	0x3f7179ec	0.94326663
145	0x3fdecd37	1.7406377
146	0x3f812391	1.0088979
147	0x3fa7914b	1.3091215
148	0x3f65ab40	0.8971443
149	0x402d19bf	2.7046964
150	0x3fce5419	1.6119415
151	0x3f676700	0.9039154
152	0x3f98baf8	1.1932058
153	0x3fb1437a	1.3848717
154	0x3ff130a5	1.884297
155	0x3fddd386	1.7330177
156	0x3f393272	0.723426
157	0x3f310311	0.69145304
158	0x3f97dc3f	1.1864089
159	0x3f62007f	0.88282007
160	0x3fac5f73	1.3466629
161	0x3f95e7bb	1.1711344
162	0x3f07135e	0.52763927
163	0x3fa82d8c	1.31389
164	0x3fd52f4d	1.665506
165	0x3f9a5717	1.2057828
166	0x3fb4b4b3	1.4117645
167	0x3f72b5d5	0.94808704
168	0x3f79bf8d	0.9755791
169	0x3f962686	1.1730506
170	0x3fbac6a1	1.4591867
171	0x3f9ced8d	1.2259995
172	0x3f97ee58	1.1869612
173	0x3f62ba94	0.88565946
174	0x3f52cf91	0.8234797
175	0x3fe959b8	1.8230505
176	0x3f8b4293	1.0879692
177	0x3f976cd2	1.1830084
178	0x3f609fcc	0.8774383
179	0x3fb28c61	1.394909
180	0x3f917991	1.1365224
181	0x3fc5d5b4	1.5455842
182	0x3f7c3697	0.985208
183	0x3f76de96	0.9643339
184	0x3f52f3ec	0.82403445
185	0x3fb7fa5c	1.4373279
186	0x3fbd8119	1.4805022
187	0x3fda2b86	1.7044532
188	0x3f5238d7	0.8211798
189	0x3f3ba4c0	0.73298264
190	0x3f81ef49	1.0151149
191	0x3f62e6b8	0.886333
192	0x400db9f7	2.2144754
193	0x3f2cc60a	0.67489684
194	0x3f984193	1.1895012
195	0x3fda48d4	1.7053475
196	0x3fb86ecb	1.4408811
197	0x3f98e352	1.1944373
198	0x3fc673ad	1.5504051
199	0x3fa8d137	1.3188847
200	0x3fce8e32	1.6137145
201	0x3f82c3dc	1.0216022
202	0x3fa4868c	1.285356
203	0x3fb76e98	1.4330626
204	0x400cd896	2.2007194
205	0x3f5ff910	0.87489414
206	0x3fbd7cb9	1.4803687
207	0x3f2bfe55	0.67184955
208	0x3f0d08b6	0.55091417
209	0x3f95225e	1.1651113
210	0x3f60d4eb	0.8782489
211	0x3fe17c49	1.7616054
212	0x3fdf6334	1.7452149
213	0x3f002286	0.5005268
214	0x3f274699	0.653421
215	0x3f150175	0.5820535
216	0x3f7636d9	0.9617744
217	0x3f39cb0c	0.7257545
218	0x400049e5	2.0045102
219	0x3fb2f1ce	1.3980043
220	0x3f8935d9	1.0719558
221	0x3f22e3c5	0.636288
222	0x3f61532c	0.88017535
223	0x3fa287e3	1.2697719
224	0x3f9529b8	1.1653357
225	0x3fff1818	1.9929228
226	0x3fc21963	1.5163997
227	0x3f82dd65	1.0223814
228	0x3fc57575	1.542647
229	0x3f6ef762	0.93346226
230	0x3f96fa96	1.1795223
231	0x3fca69bc	1.5813518
232	0x3f2ff4a5	0.6873267
233	0x3f514ff0	0.817626
234	0x3f664bab	0.8995921
235	0x3f5eb660	0.8699703
236	0x3fc86751	1.565653
237	0x3f7521bc	0.957546
238	0x3e39c5dd	0.18141885
239	0x3fc8f6cc	1.5700316
240	0x3f8dd2b2	1.1079924
241	0x3f9f3f10	1.244112
242	0x3f862c0c	1.0482192
243	0x3f41073c	0.75401664
244	0x3fdeb997	1.7400388
245	0x3fe01627	1.750676
246	0x3f991729	1.1960193
247	0x3f96459f	1.1739997
248	0x3fa922a2	1.3213694
249	0x3f8e6c79	1.1126853
250	0x3f6151b9	0.88015324
251	0x3f3c1d97	0.7348265
252	0x3facfc11	1.3514425
253	0x3fa7f04c	1.3120208
254	0x40419b3a	3.0250993
255	0x3f5e018c	0.8672111

network.4.weight f4 [128, 256]
0	0xbe2ec8ad	-0.17068739
1	0xbdf4a600	-0.119457245
2	0xbb3f1a40	-0.0029159933
3	0xbba32d61	-0.004979775
4	0x3e5f3ba9	0.21800102
5	0xbdbf29e4	-0.09334162
6	0x3bb54213	0.0055315583
7	0xbe331fb8	-0.17492568
8	0x3e77e08e	0.24206755
9	0xbe3649db	-0.17801611
10	0x3e782f16	0.24236712
11	0x3ecdbbaa	0.4018224
12	0xbe1da202	-0.15393832
13	0xbd79c869	-0.06098214
14	0x3e17eba1	0.14835979
15	0x3deaf605	0.11472706
16	0xbec5ddb5	-0.38645712
17	0x3d9bc294	0.07605472
18	0xbd495848	-0.049156457
19	0xbce9e37d	-0.028550858
20	0xbdce1152	-0.10061897
21	0xbf039531	-0.51399523
22	0xbe73cc11	-0.23808314
23	0xbe17ea88	-0.1483556
24	0xbe90725b	-0.28212246
25	0x3ddbdd57	0.107355766
26	0x3dd9f12a	0.106417015
27	0x3e5331fb	0.20624535
28	0xbea32f05	-0.3187181
29	0xbd842f7f	-0.06454372
30	0x3eb5020d	0.35353127
31	0xbe376e81	-0.17913248
32	0x3eecca5d	0.4624814
33	0xbe428f17	-0.18999897
34	0x3dfc3c8c	0.12316236
35	0x3bb1d17b	0.0054265833
36	0xbe9f8397	-0.31155083
37	0xbeaec733	-0.34136352
38	0x3ec12ce7	0.3772957
39	0xbe343146	-0.17596921
40	0x3e7c7769	0.24654926
41	0xbee7e1e7	-0.45289537
42	0xbd95667c	-0.07294938
43	0xbed7d295	-0.4215285
44	0x3e0e4ce9	0.13896526
45	0x3bbe7860	0.0058126897
46	0x3e5de52f	0.21669458
47	0xbe7b10c2	-0.24518111
48	0xbe220cfb	-0.15825264
49	0xbdb858c3	-0.09001305
50	0xbeacc9cd	-0.33747712
51	0x3da80950	0.08204901
52	0x3c46180b	0.012090693
53	0xbe0b5122	-0.13605168
54	0x3cc6c94c	0.024265908
55	0x3cdc3853	0.026882326
56	0xbe887080	-0.2664833
57	0x3e73c9dc	0.23807472
58	0xbe2498f6	-0.16073975
59	0xbe8a1de8	-0.26975942
60	0xbcb83f8d	-0.02249124
61	0x3dd485f4	0.10377112
62	0xbe5211b1	-0.20514561
63	0x3c5d3636	0.013501694
64	0xbe374085	-0.17895706
65	0xbe16153e	-0.14656541
66	0xbed9c0ad	-0.42529812
67	0x3eb9d200	0.3629303
68	0x3d3e2d46	0.046429895
69	0x3e3580ab	0.17724864
70	0x3eb39c6e	0.35080284
71	0x3c091506	0.008366829
72	0x3d96a465	0.073555745
73	0x3e953e89	0.29149273
74	0xbed1953b	-0.40934166
75	0xbe23332f	-0.15937494
76	0x3d456b78	0.048198193
77	0x3dd6d98e	0.10490714
78	0xbeb32d06	-0.34995288
79	0x3e7031fc	0.23456568
80	0x3e17d6ab	0.14827983
81	0x3cf5e114	0.030014552
82	0xbecde974	-0.40217173
83	0x3dce1520	0.10062623
84	0x3e8d9678	0.2765386
85	0x3e7f5b68	0.24937212
86	0xbc1358b8	-0.00899332
87	0x3e5483ca	0.20753399
88	0xbe91c2ea	-0.2846902
89	0xbcebd039	-0.028785812
90	0x3eb55111	0.3541341
91	0xbd8177e3	-0.06321695
92	0x3e0d5e64	0.13805538
93	0xbabf7bd3	-0.0014609046
94	0x3e4c3a8b	0.19944207
95	0xbe31dade	-0.17368647
96	0xbea199e6	-0.31562728
97	0xbe69335e	-0.22773501
98	0xbc49fead	-0.012328786
99	0xbdfa676c	-0.122267574
100	0x3e823b83	0.2543603
101	0x3d9150d9	0.070954986
102	0xbd94d073	-0.07266321
103	0x3d78fad6	0.06078609
104	0x3dfc32e3	0.12314393
105	0x3df04c14	0.11733261
106	0x3d142992	0.036172457
107	0x3d93f4b7	0.0722441
108	0xbe6e31c0	-0.23261166
109	0xbe32bbee	-0.17454502
110	0xbda087b1	-0.07838381
111	0x3e42c97e	0.19022176
112	0x3f04f809	0.5194097
113	0x3e794c49	0.24345507
114	0xbe469d16	-0.19395861
115	0x3db1c5e2	0.08680321
116	0xbe29f501	-0.16597368
117	0x3dbb028d	0.09131346
118	0xbe0df7f5	-0.1386412
119	0xbeac3309	-0.33632687
120	0x3d9fa168	0.07794458
121	0xbe4301e7	-0.19043694
122	0xbdcabe04	-0.09899524
123	0xbe8ca9dd	-0.27473345
124	0x3ea9c338	0.33156753
125	0x3d20a3f6	0.039218865
126	0x3e0adbd1	0.13560416
127	0xbe14a8fc	-0.14517587
128	0xbcf87de9	-0.030333476
129	0xbe293371	-0.1652353
130	0xbdd65950	-0.10466254
131	0xbadab20b	-0.0016685141
132	0xbc3f79f5	-0.011686792
133	0x3e3f9223	0.1870809
134	0xbf08ca1c	-0.53433394
135	0xbd508c2d	-0.050914932
136	0xbe08bdae	-0.13353607
137	0x3e9d2f53	0.30700168
138	0xbe40c1ca	-0.18823925
139	0xbd2adeb2	-0.041716285
140	0xbe86ad68	-0.26304173
141	0xbddc72f0	-0.1076411
142	0xbdc51370	-0.09622848
143	0xbe56efe7	-0.20989953
144	0x3ec1548f	0.37759826
145	0xbe285023	-0.1643682
146	0xbecbba00	-0.39790344
147	0xbdcd8b86	-0.100363776
148	0xbe7c1445	-0.24617107
149	0x3e900370	0.28127623
150	0x3da328e4	0.07966784
151	0xbdce5700	-0.10075188
152	0x3de540f7	0.11194032
153	0xbe867d6d	-0.26267567
154	0x3e588829	0.21145691
155	0xbf0913a4	-0.53545594
156	0xbe4b635d	-0.19862123
157	0x3e458beb	0.19291656
158	0xbe3ed7f3	-0.18637066
159	0xbd1f8d7a	-0.038953282
160	0x3eacff0b	0.33788332
161	0x3cbf9451	0.023386152
162	0x3dbbf85f	0.091782324
163	0xbe197585	-0.14986236
164	0x3d8148d1	0.06312717
165	0x3e086b08	0.13322079
166	0x3e312183	0.1729794
167	0x3f32439b	0.6963441
168	0x3b235681	0.0024923387
169	0x3e880807	0.26568624
170	0x3dfcb300	0.12338829
171	0x3db21b1d	0.08696578
172	0xbe2f56fe	-0.17123029
173	0x3ea34511	0.3188863
174	0x3ec2da3e	0.3805713
175	0xbd999598	-0.07499236
176	0xbe930a9c	-0.28719032
177	0x3e223d8c	0.15843791
178	0xbd2fd72b	-0.04292981
179	0xbea10367	-0.31447908
180	0x3e777bd8	0.24168336
181	0x3dd3f92d	0.10350261
182	0xbd2c7f8a	-0.04211382
183	0xbe9afc38	-0.30270553
184	0x3e5161db	0.20447485
185	0x3e519859	0.20468272
186	0xbc940e5f	-0.018073259
187	0xbdd20fe8	-0.1025694
188	0x3e90bb0b	0.28267702
189	0xbec4c10a	-0.38428527
190	0xbe3919d5	-0.1807626
191	0x3eec8ff5	0.4620358
192	0xbd0c9344	-0.03432013
193	0x3de47354	0.111548096
194	0xbe4cc972	-0.1999872
195	0x3e53e7a2	0.2069383
196	0x3e87686f	0.26446864
197	0x3e3ace03	0.1824265
198	0x3ea3ec2a	0.32016116
199	0xbc9b088b	-0.018924972
200	0x3f055cdb	0.5209481
201	0xbe06ad09	-0.13151945
202	0x3e37c853	0.17947511
203	0x3b2bd099	0.0026216863
204	0x3e789195	0.24274285
205	0x3ef80eb0	0.48448706
206	0x3e2a890b	0.1665384
207	0xbbcabe8e	-0.0061872667
208	0xbe8dbee2	-0.27684695
209	0x3dbf0e02	0.09328844
210	0xbe8f9852	-0.280459
211	0xbda3900d	-0.0798646
212	0x3e5f9d42	0.21837333
213	0x3ee5e1d1	0.44898847
214	0x3f18e59d	0.5972536
215	0xbea52fed	-0.32263127
216	0xbe43cdd6	-0.19121489
217	0xbe313486	-0.17305192
218	0xbc7fdd21	-0.015616686
219	0xbe4ddd8c	-0.20104045
220	0x3da2cf16	0.07949655
221	0x3ee257eb	0.442077
222	0x3d537c93	0.051632475
223	0xbe25a84d	-0.16177483
224	0x3d121c94	0.035671785
225	0x3d854a5b	0.06508323
226	0xbf0e882d	-0.5567654
227	0xbced61c3	-0.02897728
228	0xbe86e3a9	-0.26345566
229	0xbd6a9bca	-0.05727748
230	0xbdb66164	-0.089052945
231	0xbecbab68	-0.3977921
232	0x3ea9ca9c	0.3316239
233	0x3e41b888	0.1891805
234	0xbe86650b	-0.26248965
235	0xbe49e7b5	-0.19717295
236	0x3c026695	0.007959028
237	0x3e41e825	0.18936212
238	0xbe0b2639	-0.135888
239	0x3d6cd6e0	0.05782211
240	0xbe4011db	-0.18756811
241	0x3ca2d8e0	0.019878805
242	0xbe9ebb38	-0.31002212
243	0xbde7cdad	-0.113185264
244	0xbe5d007a	-0.21582213
245	0x3e1b3dc8	0.15160286
246	0xbe5263b3	-0.20545845
247	0x3dc58e5d	0.09646294
248	0xbe8b5b90	-0.27218294
249	0xbefa28e6	-0.48859328
250	0x3dbdd045	0.0926824
251	0xbd5985a2	-0.053105958
252	0x3e84386a	0.2582429
253	0x3e2b891e	0.16751525
254	0x3e116c97	0.1420158
255	0x3d02326f	0.03178638

network.4.bias f4 [128]
0	0xbe5b3e95	-0.21410592
1	0x3e698d4a	0.22807804
2	0x3e8328aa	0.25616962
3	0x3e190783	0.14944272
4	0x3ebe6a54	0.37190497
5	0xbec22a9b	-0.3792313
6	0x3ea02afb	0.31282791
7	0xbe9cb461	-0.30606368
8	0x3f315ed2	0.6928531
9	0x3f1d8f5f	0.6154689
10	0xbe1d0c06	-0.15336618
11	0xbe819edd	-0.25316516
12	0x3e63341b	0.22187845
13	0x3e6d77ee	0.23190281
14	0x3de265c8	0.110545695
15	0xbd563718	-0.052298635
16	0x3e159d0a	0.14610687
17	0x3f250b55	0.64470416
18	0xbeb7efaf	-0.35925052
19	0xbf26a58b	-0.6509635
20	0xbf033f95	-0.51268893
21	0x3eab5c72	0.33468968
22	0xbf69c2a4	-0.91312623
23	0x3e1a6ea3	0.15081267
24	0x3f4fda64	0.8119261
25	0x3e02674d	0.12734719
26	0x3e414f2a	0.18877855
27	0x3ec670d0	0.38757944
28	0x3f3ce645	0.73788863
29	0xbf1b3901	-0.60633856
30	0xbdf4eadf	-0.119588606
31	0x3f310c12	0.6915904
32	0x3f232b67	0.637381
33	0xbed3f1da	-0.41395456
34	0x3e8b2453	0.2717615
35	0x3f0904c1	0.5352288
36	0x3e51fa85	0.20505722
37	0x3dd190df	0.1023271
38	0xbc6519d5	-0.01398321
39	0x3eedeb96	0.464688
40	0xbec59438	-0.38589644
41	0x3f956f19	1.1674529
42	0xbd8b0224	-0.06787518
43	0x3e7a850a	0.24464813
44	0xbdd248bf	-0.102677815
45	0xbe3dabb3	-0.1852253
46	0xbdef1966	-0.11674766
47	0x3edc4c69	0.43027046
48	0x3d784d04	0.060620323
49	0x3f0a10c4	0.5393183
50	0x3e07c568	0.13258898
51	0x3f4e8f78	0.80687666
52	0x3e3e1655	0.18563206
53	0x3d5cd16a	0.05391065
54	0x3ec2afe2	0.38024813
55	0x3db846ed	0.08997903
56	0xbccd949c	-0.025095277
57	0x3dadb051	0.08480895
58	0x3eac05d1	0.33598188
59	0xbe138d0a	-0.14409271
60	0x3edbe7fe	0.42950433
61	0x3efe4dfa	0.49668866
62	0x3e8fa7aa	0.28057605
63	0x3e58a5f7	0.2115706
64	0x3f803c9a	1.0018494
65	0x3e814dba	0.25254613
66	0x3ed9cdfb	0.42539963
67	0x3eed57b9	0.4635599
68	0x3f2bb599	0.6707397
69	0x3e5573b3	0.20844917
70	0x3f1861f4	0.59524465
71	0xbec1b11f	-0.37830445
72	0x3e61580f	0.22006248
73	0x3eedd284	0.46449673
74	0x3eab983b	0.3351458
75	0xbeef37a7	-0.46722147
76	0x3d5dadfd	0.054121006
77	0xbe87f43d	-0.26553527
78	0x3c953672	0.018214438
79	0xbef864a4	-0.48514283
80	0x3e662137	0.22473608
81	0x3e78055d	0.24220796
82	0x3e2693ea	0.16267362
83	0x3ed92d67	0.42417452
84	0x3ebbd095	0.36682573
85	0xbe1d17ee	-0.1534116
86	0xbee4c6e0	-0.4468298
87	0xbdfd0ccc	-0.123559564
88	0xbeb0e91f	-0.34552857
89	0x3e68eba1	0.22746135
90	0x3ef7b37a	0.48379117
91	0xbc453a05	-0.012037759
92	0xbed83372	-0.4222675
93	0xbeda9cd3	-0.42697772
94	0xbdb080a3	-0.086182855
95	0x3e654753	0.2239049
96	0x3f813bd4	1.0096383
97	0x3e94e95f	0.29084298
98	0xbe441901	-0.19150163
99	0x3ef2ddd5	0.4743487
100	0x3e630bd9	0.22172488
101	0x3e8af2a4	0.27138245
102	0x3eabdbe3	0.33566198
103	0xbb92d1cf	-0.0044805775
104	0x3f6d6d68	0.92745066
105	0xbee3cd45	-0.44492546
106	0x3e1a3db3	0.15062599
107	0x3f41b01f	0.75659364
108	0x3f74ebcc	0.956723
109	0xbe3820b2	-0.17981222
110	0xbe5f161c	-0.21785778
111	0xbf04c181	-0.51857764
112	0x3ef02724	0.46904862
113	0xbdc94948	-0.098284304
114	0x3e8db1fb	0.2767485
115	0x3e89893a	0.26862508
116	0x3ec30324	0.38088334
117	0x3d75f524	0.060048237
118	0xbf88f9bf	-1.0701216
119	0x3f13279a	0.574823
120	0xbc808af7	-0.015691264
121	0x3f24c65d	0.6436518
122	0x3e99f9f8	0.30073524
123	0x3e1d3d32	0.15355375
124	0x3ca61d70	0.020277709
125	0xbe5f3b9e	-0.21800086
126	0xbe8394c0	-0.25699425
127	0x3e12691c	0.14297909
