ml-prediction-system-backend-flask/app/data/OptimalNN_model.pt (torch, 609403 bytes, 45 tensors)

network.0.weight f4 [256, 24]
0.71715844 0.31886873 0.7235047 0.0867618 0.1171111 0.1472338 -0.337421 0.09281787
-0.048494697 0.13457382 0.16217957 -0.0060285386 0.6010392 0.15099853 -0.14169766 0.053646415
0.22606796 -0.073383935 0.26177648 0.06540184 0.20306 -0.18089114 -0.104079254 0.16115934
0.27845243 -0.25554815 0.60252243 -0.40170354 0.12603602 -0.10445475 -0.33961302 -0.2518969
-0.032871146 -0.1497517 0.8384293 0.16675599 0.21922381 0.3390538 0.024067843 0.056245916
0.45493478 0.053855114 -0.07439546 -0.20348638 0.32323128 -0.2978942 0.35977164 0.28154644
-0.14035566 0.14605698 -0.07337476 0.06187868 -0.09854578 0.2501874 0.27494407 0.16759
-0.05496718 0.04381363 -0.57546884 0.1136974 -0.16229384 -0.76033497 -0.47612074 -0.31877366
0.15612468 -0.562797 -0.14485928 0.19199952 0.26074225 -0.23034133 -0.49337512 -0.044820487
-0.17277797 -0.27322498 0.3346687 -0.2867538 0.32390386 -0.120936066 -0.03544924 0.08397796
0.043585077 -0.4734841 -0.1756084 0.72387356 -0.12947044 0.10336835 -0.2688835 -0.091617465
0.2704083 -0.34139857 0.010696887 0.036040787 -0.17324667 -0.07523275 -0.41562155 -0.20372835
0.0069177817 -0.14738339 0.16453588 -0.111985594 0.23023728 -0.18400416 -0.24546552 -0.13409618
0.33693466 -0.04914347 0.045535836 -0.29757413 0.44399598 -0.21999176 0.103954725 0.47589278
0.3432744 -0.018010247 -0.3479395 -0.31302595 -0.17255622 -0.4455232 0.41996285 0.27355728
0.38516423 -0.27426362 0.1292725 -0.10073785 -0.13199595 0.09152851 -0.30271736 0.09000879
-0.07568694 0.22836396 0.45142886 -0.14212836 0.19116299 0.09915824 0.020723663 -0.1873363
0.14638989 0.17632896 -0.21494186 0.38326514 0.2977616 -0.29493794 0.7391125 0.25624415
0.1554501 -0.41390008 0.025068233 -0.38686034 0.14262393 -0.0043942244 0.14910033 -0.74491286
0.1902528 -0.39534712 0.13731119 0.32680854 -0.102221556 0.48713 0.3390601 0.11906813
0.18598025 -0.1378836 -0.0149308015 0.058424305 0.08289794 -0.13473126 -0.65382916 -0.7561479
0.45723155 0.2974502 0.27487776 -0.185497 0.11032001 -0.31957754 -0.25886106 -0.07147963
0.20529506 0.077003755 0.21685296 0.010679142 0.48171052 0.16260144 0.1976526 -0.19165656
0.8036279 -0.24780974 -0.020731146 0.028560434 0.13085565 -0.2155295 0.45103317 -0.035883036
-0.25255984 0.15210311 -0.41218877 -0.13294894 -0.010498773 -0.20432249 0.021715013 0.16119583
-0.012676231 0.046934273 -0.013906341 0.2687376 -0.14908266 0.23333377 -0.26744777 0.08062532
-0.00060190156 -0.6357995 0.755622 -0.23435073 -0.41657734 0.8086892 -0.05334645 0.063442886
0.45755717 0.1149885 0.4958884 -0.22218375 -0.052151527 0.10389574 -0.35550958 -0.2888573
0.25204912 0.09405979 0.26944792 -0.07164483 0.40187687 0.15165734 0.30162203 -0.16295663
0.189433 -0.13186319 -0.3207754 -0.4137737 -0.500007 -0.16726242 0.60656756 0.43692228
0.35216004 -0.14329898 -0.26463395 0.2612936 -0.2995545 0.013894283 0.4309751 -0.89883137
-0.20674312 -0.13495193 -0.35675636 -0.66061616 -0.23611087 -0.42917117 -0.23339188 0.04430686
00000000: b297 373f c342 a33e 9b37 393f 2cb0 b13d
00000010: f2d7 ef3d 75c4 163e 72c2 acbe 4c17 be3d
00000020: 60a2 46bd b8cd 093e 6712 263e 0c8b c5bb
00000030: b4dd 193f 5c9f 1a3e 3119 11be 58bc 5b3d
00000040: 5c7e 673e 514a 96bd 9107 863e 66f1 853d
00000050: f6ee 4f3e 873b 39be 8127 d5bd f406 253e
00000060: 5191 8e3e 35d7 82be e93e 1a3f 16ac cdbe
00000070: 960f 013e 5fec d5bd c2e1 adbe a1f8 80be
00000080: e5a3 06bd 8258 19be 4da3 563f 15c2 2a3e
00000090: 357c 603e 7698 ad3e ed29 c53c 1e62 663d
000000a0: 36ed e83e 2e97 5c3d a65c 98bd bc5e 50be
000000b0: 927e a53e 9785 98be fd33 b83e db26 903e
000000c0: 65b9 0fbe f68f 153e 8245 96bd 8074 7d3d
000000d0: 5fd2 c9bd 9018 803e 78c5 8c3e b79c 2b3e
000000e0: 4425 61bd ec75 333d ed51 13bf 2fda e83d
000000f0: 5b30 26be 50a5 42bf 19c6 f3be 4d36 a3be
00000100: 26df 1f3e 7713 10bf fe55 14be 869b 443e
00000110: 0280 853e 99de 6bbe aa9b fcbe b095 37bd
00000120: b5ec 30be 25e4 8bbe b259 ab3e 65d1 92be
00000130: bad6 a53e 54ad f7bd 3933 11bd a3fc ab3d
00000140: 4486 323d 826c f2be b0d2 33be c74f 393f
00000150: e693 04be c9b2 d33d 19ab 89be f0a1 bbbd
00000160: f572 8a3e cbcb aebe ff41 2f3c 819f 133d
00000170: 9367 31be a113 9abd 59cc d4be 2a9e 50be
00000180: 8fae e23b aceb 16be 187c 283e b458 e5bd
00000190: 52c3 6b3e 966b 3cbe 505b 7bbe 8250 09be
000001a0: b382 ac3e aa4a 49bd c983 3a3d a35b 98be
000001b0: 7153 e33e 8545 61be 37e6 d43d 38a8 f33e
000001c0: aac1 af3e 3a8a 93bc 2025 b2be f044 a0be
000001d0: 94b2 30be 9e1b e4be 5f05 d73e b30f 8c3e
000001e0: 3f34 c53e 486c 8cbe 0360 043e a54f cebd
000001f0: f229 07be 4d73 bb3d c5fd 9abe 8756 b83d
00000200: c101 9bbd 3ed8 693e af21 e73e 198a 11be
00000210: 3bc0 433e 7a13 cb3d acc4 a93c 16d5 3fbe
00000220: 3be7 153e 948f 343e b819 5cbe 543b c43e
00000230: 3574 983e 1b02 97be 7a36 3d3f 6f32 833e
00000240: 502e 1f3e b6ea d3be e55b cd3c 8f12 c6be
00000250: 020c 123e 6dfd 8fbb c2ad 183e 9cb2 3ebf
00000260: a1d1 423e f06a cabe 4e9b 0c3e 7353 a73e
00000270: 8959 d1bd 1a69 f93e 4999 ad3e fed9 f33d
00000280: 9b71 3e3e 5c31 0dbe 52a0 74bc 534e 6f3d
00000290: 65c6 a93d fef6 09be 5961 27bf e992 41bf
000002a0: 411a ea3e 654b 983e c7bc 8c3e edf2 3dbe
000002b0: 75ef e13d ab9f a3be 7089 84be ea63 92bd
000002c0: de38 523e 25b4 9d3d b40e 5e3e 91f7 2e3c
000002d0: c3a2 f63e fe80 263e 7165 4a3e 9e41 44be
000002e0: 8fba 4d3f d6c1 7dbe 5dd4 a9bc 92f7 e93c
000002f0: 06ff 053e c4b3 5cbe d2ed e63e 17fa 12bd
00000300: 864f 81be ebc0 1b3e 680a d3be c423 08be
00000310: 0c03 2cbc ea39 51be afe3 b13c 8510 253e
00000320: f7af 4fbc 273e 403d 6cd7 63bc fa97 893e
00000330: 20a9 18be 0cef 6e3e eaee 88be e31e a53d
00000340: eec8 1dba c2c3 22bf 7270 413f a3f9 6fbe
00000350: a049 d5be 4106 4f3f cf81 5abd 58ee 813d
00000360: ef44 ea3e 177f eb3d 16e5 fd3e 2384 63be
00000370: d79c 55bd 4ac7 d43d 5a05 b6be 1be5 93be
00000380: 950c 813e 6ba2 c03d 14f5 893e 86ba 92bd
00000390: cec2 cd3e 104c 1b3e 346e 9a3e 1ade 26be
000003a0: b9fa 413e 2507 07be ac3c a4be 25da d3be
000003b0: 7500 00bf d746 2bbe 0348 1b3f 47b4 df3e
000003c0: 524e b43e f8bc 12be 1a7e 87be 46c8 853e
000003d0: 355f 99be d9a4 633c c5a8 dc3e d019 66bf
000003e0: 78b4 53be d730 0abe c5a8 b6be 241e 29bf
000003f0: 0cc7 71be 53bc dbbe 48fe 6ebe 1c7b 353d

network.0.bias f4 [256]
-0.35812756 -0.3152128 -0.44922072 -0.39146677 -0.5943803 -0.4222997 0.02061672 0.037881672
0.21409829 0.1357891 -0.24004959 -0.2796751 0.18677782 -0.16520818 -0.31383753 -0.4749322
-0.32583252 0.047346026 -0.32670692 0.040722743 -0.44311243 -0.5247063 -0.5402044 -0.5298762
-0.31179026 -0.08918013 -0.018532323 0.102452055 0.2904225 -0.36705673 -0.17715557 -0.0663469
-0.1660512 -0.29291576 0.102674685 -0.5994542 0.1863283 -0.019857792 0.39563242 -0.32617447
-0.12746535 -0.67306095 -0.53066707 0.06660728 0.046238 0.03778484 -0.38937655 -0.088785216
-0.05732245 -0.4181382 0.11780489 0.61306804 -0.41947255 0.3793681 -0.3248435 0.25753248
-0.117551334 -0.05928192 -0.94269586 0.35995525 -0.12930939 -0.28647813 0.07357311 -0.3389448
-0.25568876 -0.21162675 -0.59545577 0.1745052 -0.42540753 0.07746996 -0.3957631 -0.07323889
-0.20522137 0.16618727 -0.13919191 -0.12437621 0.13119897 -0.32539076 -0.06915928 0.22850846
-0.1787933 0.0027969303 -0.1800643 -0.026957775 -0.30820262 0.2266095 0.6259072 0.17409737
-0.13855706 -0.4625405 -0.06577025 -0.38854837 0.16374443 -0.5195694 0.22929382 0.020988643
0.011929283 0.38115007 -0.20526862 0.47201282 -0.043351624 -0.16656859 0.2457058 -0.06444455
-0.07964525 0.10651815 -0.035167843 -0.28069296 -0.28885835 0.18557398 -0.43714282 -0.64856017
0.00027401507 -0.30417955 -0.39228472 0.08918191 0.24668452 -0.24830094 -0.21054086 -0.399258
0.2132715 0.2810094 0.4431406 -0.39229912 -0.26666236 -0.21436022 -0.045800794 -0.56253093
0.24805436 0.3584835 0.01600858 -0.044969257 0.1190423 0.21023624 0.29147637 0.06657867
0.31766334 -0.33724347 -0.20086652 -0.11981041 -0.49661174 -0.29548082 -0.62550753 -0.40673304
0.067989 0.17269742 -0.30881706 -0.3640846 -0.32606816 -0.611626 -0.4129396 -0.5827185
0.3056734 -0.39057207 -0.4397312 -0.6507977 -0.10422408 0.056642935 -0.23995279 -0.23512445
0.30048665 -0.29138702 -0.11013916 0.20856561 0.11166348 -0.37227204 -0.124624945 -0.24878013
-0.53883106 -0.22410294 0.21725978 0.067160584 0.20484746 -0.03565922 -0.1529464 0.71031296
-0.42401168 -0.25087664 -0.74318266 -0.21780324 -0.3907024 0.029257176 -0.13361685 -0.39799476
-0.32243496 0.017725158 0.10097711 -0.5106902 -0.3468848 -0.14609621 0.3725424 0.26969692
-0.044049017 -0.28042865 0.2986395 0.02911498 -0.88689774 -0.5983867 -0.32547137 -0.24330315
-0.20423993 0.0042762323 0.1499247 -0.32119644 -0.23154598 -0.025854424 0.1045455 -0.33669508
-0.01496297 -0.0023359372 -0.41711706 -0.010776966 -0.004005048 0.17706627 -0.48456612 -0.04985968
-0.3043839 -0.15704519 0.04706364 0.10514607 0.23406821 -0.526529 -0.37268555 -0.2856959
-0.23196237 0.18610366 -0.10260584 -0.016579632 -0.3837379 0.022889026 0.3735028 0.013396493
-0.23205093 -0.5424469 -0.54709506 -0.6242251 -0.6058781 -0.17227659 -0.060070727 0.3722217
-0.21142495 -0.105892405 -0.23023431 -0.4446875 -0.14121953 -0.3530089 0.16276088 -0.25665036
-0.28744125 -0.25645334 -0.5365128 -0.3912348 -0.1707653 0.65163 0.026959011 -0.12042299
00000000: 7f5c b7be 9263 a1be 4200 e6be 556e c8be
00000010: 4f29 18bf ab37 d8be 65e4 a83c d029 1b3d
00000020: 953c 5b3e 4c0c 0b3e 8fcf 75be 9331 8fbe
00000030: af42 3f3e 552c 29be 50af a0be 502a f3be
00000040: 85d3 a6be e8ed 413d 2146 a7be e4cc 263d
00000050: a2df e2be 2753 06bf d64a 0abf f7a5 07bf
00000060: f9a2 9fbe 12a4 b6bd 19d1 97bc 62d2 d13d
00000070: 42b2 943e dcee bbbe 4568 35be e2e0 87bd
00000080: 5309 2abe 0ef9 95be 1b47 d23d d575 19bf
00000090: d9cc 3e3e cfac a2bc 5590 ca3e 5700 a7be
000000a0: 4786 02be b94d 2cbf ccd9 07bf 6669 883d
000000b0: 0f64 3d3d 47c4 1a3d 5d5c c7be 06d5 b5bd
000000c0: f2ca 6abd 3616 d6be b143 f13d 07f2 1c3f
000000d0: 1bc5 d6be 893c c23e e351 a6be 4cdb 833e
000000e0: c1be f0bd 99d1 72bd 8454 71bf 0e4c b83e
000000f0: ae69 04be 43ad 92be 80ad 963d 2c8a adbe
00000100: a3e9 82be afb4 58be ca6f 18bf 7eb1 323e
00000110: 04cf d9be 92a8 9e3d 76a1 cabe 45fe 95bd
00000120: 8d25 52be ff2c 2a3e 5388 0ebe f4b8 febd
00000130: 0659 063e 9e99 a6be 61a3 8dbd 1ffe 693e
00000140: 9715 37be b44c 373b c762 38be 8dd6 dcbc
00000150: bccc 9dbe 520c 683e 743b 203f 9546 323e
00000160: e7e1 0dbe 1cd2 ecbe 8eb2 86bd d0ef c6be
00000170: 9fac 273e 8002 05bf 00cc 6a3e 60f0 ab3c
00000180: 0a73 433c 1a26 c33e f031 52be aaab f13e
00000190: 7991 31bd f590 2abe 4d9a 7b3e 81fb 83bd
000001a0: 0d1d a3bd 3026 da3d 280c 10bd fdb6 8fbe
000001b0: 3ee5 93be 1b07 3e3e 2fd1 dfbe 0a08 26bf
000001c0: aea9 8f39 6cbd 9bbe 8bd9 c8be 01a5 b63d
000001d0: de9a 7c3e 9a42 7ebe 0698 57be 8b6b ccbe
000001e0: d863 5a3e 77e0 8f3e 53e3 e23e 6edb c8be
000001f0: f887 88be 3f81 5bbe 9d99 3bbd 0702 10bf
00000200: f601 7e3e 268b b73e 6d24 833c af31 38bd
00000210: 73cc f33d 2b48 573e 643c 953e 665a 883d
00000220: c5a4 a23e 2dab acbe f4af 4dbe 295f f5bd
00000230: e543 febe 4349 97be 4321 20bf 503f d0be
00000240: d13d 8b3d 98d7 303e 451d 9ebe 4c69 babe
00000250: 68f2 a6be 8693 1cbf d26c d3be 0a2d 15bf
00000260: 3981 9c3e 10f9 c7be 7324 e1be ae9a 26bf
00000270: 6f73 d5bd 6c02 683d 2fb6 75be 77c4 70be
00000280: 63d9 993e ae30 95be a490 e1bd 3992 553e
00000290: d3af e43d 719a bebe 5d3b ffbd 38c0 7ebe
000002a0: d5f0 09bf 3e7b 65be 5979 5e3e 7d8b 893d
000002b0: 88c3 513e 670f 12bd fb9d 1cbe 12d7 353f
000002c0: 0f18 d9be e772 80be 3841 3ebf d007 5fbe
000002d0: 250a c8be bfac ef3c dbd2 08be f8c5 cbbe
000002e0: 3216 a5be 5a34 913c 16cd ce3d 98bc 02bf
000002f0: e29a b1be 3f9a 15be e1bd be3e b715 8a3e
00000300: be6c 34bd 5894 8fbe 47e7 983e 8a82 ee3c
00000310: bb0b 63bf df2f 19bf 2fa4 a6be 7624 79be
00000320: 4624 51be a31f 8c3b dc85 193e dc73 a4be
00000330: 641a 6dbe a8cc d3bc f31b d63d 4c63 acbe
00000340: 3f27 75bc 8616 19bb 5e90 d5be df91 30bc
00000350: c73c 83bb dc50 353e 0d19 f8be aa39 4cbd
00000360: 35d8 9bbe 74d0 20be cec5 403d d356 d73d
00000370: 94af 6f3e 9bca 06bf a4d0 bebe bc46 92be
00000380: 8b87 6dbe f591 3e3e 0323 d2bd 02d2 87bc
00000390: 4b79 c4be c481 bb3c c23b bf3e f77c 5b3c
000003a0: c29e 6dbe cddd 0abf 6c0e 0cbf 37cd 1fbf
000003b0: d41a 1bbf 4669 30be b90c 76bd d893 be3e
000003c0: c87f 58be 1ede d8bd 8bc2 6bbe 14ae e3be
000003d0: da9b 10be 95bd b4be caaa 263e ad67 83be
000003e0: 802b 93be da4d 83be e758 09bf ed4f c8be
000003f0: 19dd 2ebe 39d1 263f 25d9 dc3c 54a0 f6bd

network.2.weight f4 [256]
1.1726017 1.2691065 0.97835827 0.8979011 1.0701239 0.945304 0.9358345 1.1904685
1.266945 1.1994417 1.279945 0.7875191 0.55643445 0.7571731 1.014421 0.6189215
1.0556536 1.1501734 0.8833039 0.83975154 1.2080704 0.9411953 0.9828067 1.1100578
0.9794774 0.9403182 1.0444816 0.66136944 0.9051286 0.69701236 0.9124321 0.8720183
0.8945014 0.98383725 1.0087366 1.3558974 1.1908869 1.2236849 0.29398555 1.2630802
1.0065955 1.2932134 1.100482 0.82687545 0.37348372 1.1631505 1.0901331 1.2668885
0.6893201 1.0887822 0.80603784 1.2137966 1.3463796 0.5992311 0.9430382 1.4391187
1.1370494 1.1946046 1.5055612 1.211622 0.8274711 1.1555054 1.0592414 0.25837943
0.20355599 0.9875073 1.0487729 0.89343846 0.4511136 0.95856595 1.0338554 0.6189399
0.795903 0.98109597 0.8615868 0.9064051 0.9183855 0.6809156 1.165088 1.213188
0.5810338 0.7677431 1.3009745 0.63111955 0.738939 0.28550896 1.0124018 0.89667815
0.88325286 0.8436855 0.9825278 0.86289185 1.2899787 1.0911001 1.0465405 0.9562095
1.2273756 1.0496587 1.1286899 0.92565495 1.0497416 1.0065085 0.77726954 1.3118441
1.0742701 0.8796167 0.93307734 0.35547727 0.7482733 1.1129509 1.267051 1.5122252
1.1808125 0.71862113 0.9829857 1.0291718 0.5739374 1.3070768 1.1791085 0.43677628
0.89770424 1.2434878 0.7318501 0.607614 1.3923311 1.1094859 1.1451919 1.1121268
0.8558639 0.546979 1.0258654 0.53953534 0.9943863 0.9677335 1.2809485 0.5099383
0.90410125 0.6133918 0.9739043 1.0682964 0.7602643 0.91460335 0.5968658 1.2429014
0.9016477 1.0953795 1.0571206 0.4129353 0.64796877 1.339614 1.2297597 0.90527254
0.8546326 1.2779732 0.8995312 1.2800435 1.2690493 0.35464004 1.1516403 1.4559377
1.038312 0.44325092 1.0125318 0.780522 1.2713424 1.2955015 0.98233074 1.159731
0.9633322 0.97631526 0.7990188 0.69716716 1.2516959 0.27553004 0.81253165 1.0918778
1.2519546 0.31066293 0.94189477 0.6714791 1.4405193 1.108322 1.1573241 1.0020275
1.4163984 1.4297208 1.4071447 0.82454956 0.7555796 0.9943154 0.9899685 0.84850955
0.86286914 0.8664557 0.73751956 0.84721357 1.0335221 1.19756 0.89997506 0.49730855
1.1934177 0.812146 0.98523635 0.74672914 0.84595674 0.69769794 0.7854287 1.0215621
1.0212908 0.96023905 0.7845924 1.0399303 0.58753246 0.6308102 1.1694325 0.85895985
0.95503736 1.0179712 1.32575 1.033707 0.9280986 0.8429569 0.24405089 0.71649534
0.83997333 0.7579457 1.0549316 0.91252965 1.0815246 1.0555183 1.3319781 0.74003494
1.1992121 1.4035002 1.0506842 1.0411654 1.239134 1.0718229 1.2236559 0.78941983
0.5725395 1.1482913 0.870544 1.4184645 0.47028252 0.7043874 0.9681795 0.90218896
1.3919392 1.3821181 1.3030593 1.0920732 1.3027184 0.9256605 1.1428045 0.9019885
00000000: d017 963f 1572 a23f b075 7a3f d9dc 653f
00000010: d2f9 883f 71ff 713f da92 6f3f 4661 983f
00000020: 412b a23f 4e87 993f 3dd5 a33f da9a 493f
00000030: 7d72 0e3f 19d6 413f 8cd8 813f a471 1e3f
00000040: a81f 873f e238 933f 3420 623f f5f9 563f
00000050: 0da2 9a3f 2df2 703f 3899 7b3f 6016 8e3f
00000060: 08bf 7a3f b2b8 703f 93b1 853f 824f 293f
00000070: 82b6 673f 676f 323f 2695 693f 973c 5f3f
00000080: 0bfe 643f c2dc 7b3f 481e 813f 0c8e ad3f
00000090: fb6e 983f b5a1 9c3f 4685 963e 9dac a13f
000000a0: 1fd8 803f 0488 a53f 98dc 8c3f 1cae 533f
000000b0: 4239 bf3e 1ee2 943f 7b89 8b3f 6729 a23f
000000c0: 4877 303f 375d 8b3f 7f58 4e3f b05d 9b3f
000000d0: 2b56 ac3f 3667 193f f46a 713f 0b35 b83f
000000e0: d68a 913f cee8 983f 3bb6 c03f 6e16 9b3f
000000f0: 25d5 533f 9ae7 933f 3995 873f 4f4a 843e
00000100: fb70 503e 47cd 7c3f 313e 863f 62b8 643f
00000110: 5df8 e63e 9464 753f 6055 843f d872 1e3f
00000120: 4dc0 4b3f 1b29 7b3f f490 5c3f 2a0a 683f
00000130: 501b 6b3f 7c50 2e3f 9b21 953f bf49 9b3f
00000140: a2be 143f d08a 443f 5586 a63f 0d91 213f
00000150: 1b2b 3d3f 3b2e 923e 6296 813f b38c 653f
00000160: dc1c 623f c6fb 573f f186 7b3f 7be6 5c3f
00000170: 061e a53f 2ba9 8b3f 0af5 853f 25ca 743f
00000180: a51a 9d3f 375b 863f e978 903f b9f7 6c3f
00000190: ef5d 863f 45d5 803f 23fb 463f 82ea a73f
000001a0: af81 893f 8f2e 613f 28de 6e3f 1e01 b63e
000001b0: d78e 3f3f 2d75 8e3f ba2e a23f 9890 c13f
000001c0: dd24 973f 8ef7 373f f3a4 7b3f e7bb 833f
000001d0: 90ed 123f 4b4e a73f 07ed 963f 24a1 df3e
000001e0: f2cf 653f 9c2a 9f3f 875a 3b3f 978c 1b3f
000001f0: e837 b23f a203 8e3f a695 923f 2c5a 8e3f
00000200: e619 5b3f d106 0c3f 8f4f 833f fd1e 0a3f
00000210: 1a90 7e3f 62bd 773f 1ff6 a33f 518b 023f
00000220: 2e73 673f 3f07 1d3f cb51 793f f0bd 883f
00000230: aea0 423f 7223 6a3f 32cc 183f 6517 9f3f
00000240: 62d2 663f 6535 8c3f ba4f 873f 416c d33e
00000250: 48e1 253f 7978 ab3f c468 9d3f f1bf 673f
00000260: 34c9 5a3f a094 a33f ad47 663f 77d8 a33f
00000270: 3570 a23f 6193 b53e f368 933f 2b5c ba3f
00000280: 68e7 843f c9f1 e23e a49a 813f 4ad0 473f
00000290: 59bb a23f fed2 a53f 077a 7b3f 1172 943f
000002a0: f09c 763f ccef 793f 7f8c 4c3f 8c79 323f
000002b0: 9237 a03f 4612 8d3e 1302 503f a7c2 8b3f
000002c0: 0c40 a03f 360f 9f3e 0420 713f 0ee6 2b3f
000002d0: f062 b83f 7fdd 8d3f 3223 943f 7042 803f
000002e0: 8b4c b53f 1701 b73f 511d b43f ae15 533f
000002f0: aa6d 413f 748b 7e3f 936e 7d3f ec37 593f
00000300: fee4 5c3f 0ad0 5d3f 15ce 3c3f fde2 583f
00000310: 744a 843f a549 993f c464 663f 3a9f fe3e
00000320: e9c1 983f cde8 4f3f 7338 7c3f a429 3f3f
00000330: 9f90 583f 559c 323f db11 493f 8cc2 823f
00000340: a8b9 823f 3ad2 753f 0cdb 483f 701c 853f
00000350: 8768 163f c77c 213f f7af 953f cbe4 5b3f
00000360: 547d 743f e14c 823f 2db2 a93f 8350 843f
00000370: df97 6d3f 06cc 573f 7ae8 793e 3d6c 373f
00000380: 7e08 573f bb08 423f 0008 873f 8b9b 693f
00000390: 666f 8a3f 391b 873f 427e aa3f ee72 3d3f
000003a0: c87f 993f e5a5 b33f d27c 863f e844 853f
000003b0: f19b 9e3f 7e31 893f c2a0 9c3f 6b17 4a3f
000003c0: f391 123f 36fb 923f f9db 5e3f 3f90 b53f
000003d0: dfc8 f03e bc52 343f 9dda 773f dbf5 663f
000003e0: 102b b23f 3fe9 b03f a6ca a63f 0ec9 8b3f
000003f0: 7abf a63f 16f8 6c3f 6b47 923f b8e8 663f

network.2.bias f4 [256]
-0.0679675 -0.38447595 0.44157693 0.41052976 -0.6354843 -0.43996748 0.70091546 -0.07110392
0.2892046 -0.26535538 -0.5276203 0.032402433 0.4811367 -0.20903938 0.62062293 -0.24914463
-0.055314217 0.24848618 0.43343425 -0.08793556 -0.382609 -0.3660787 0.06803222 -0.3304029
-0.5521699 0.5208273 -0.4502473 -0.6737724 0.33485407 -0.34678966 0.1372996 0.4647093
0.094349325 0.14596392 0.6534738 -0.49568838 0.31568685 0.24468818 0.24084626 0.30828795
0.19938684 -0.65700406 0.101914056 -0.4920077 0.16898116 -0.4702994 0.12234382 0.61225027
-0.45013857 -0.26638317 0.5323349 0.61569333 0.032453842 0.32854232 -0.35121918 0.15245126
-0.013565295 0.59441936 -0.22934054 0.059855808 -0.39856145 -0.097457916 -0.24360533 0.47913644
0.5081679 -0.47871864 -0.15807499 0.27031925 -0.48766965 0.37706605 -0.43383387 0.19390589
0.29966587 -0.3830984 0.190531 -0.60669404 -0.19816831 -0.4815798 -0.3344985 -0.23884705
-0.71275204 0.081431605 0.026700126 0.40709487 0.36892623 0.498978 -0.043679327 -0.016442291
-0.5052087 0.44947794 0.29550186 0.24806379 0.06000677 -0.027168723 -0.419666 0.056348436
-0.44394243 -0.2497686 0.22835782 -0.47441167 -0.09160172 -0.44826227 0.16419224 -0.10841173
-0.32411566 -0.31645775 0.009603571 0.43702912 0.6665855 -0.536848 0.605625 0.11055783
-0.2639979 -0.62727386 0.07267209 0.20517065 -0.45846906 0.06941196 -0.4761687 0.099984184
0.3717031 0.01421304 -0.39005658 -0.33007696 -0.4657797 0.36626828 -0.0054195817 0.11042467
-0.70948404 0.12343765 -0.094730295 -0.5716162 0.5944079 0.42598486 -0.15050931 0.33639887
-0.29440838 0.4139182 0.22886473 0.34213313 0.3169789 0.51925975 -0.39444795 -0.5090681
0.121416695 0.060359266 0.3991264 -0.08752425 -0.16273397 0.18513833 -0.39989915 -0.59965944
0.6447757 0.3402883 -0.042702686 0.33982182 -0.1272178 0.60080135 0.08325528 -0.030006923
0.7275306 -0.4973575 -0.33705518 0.12829943 0.03533966 -0.11635566 0.41416964 -0.32149598
0.39928192 -0.6363091 0.79571813 0.5226462 0.063857675 0.38944057 0.66271394 0.008559179
-0.64149094 -0.5855363 -0.4717879 0.506048 0.39774573 -0.18291724 -0.39954725 -0.53943247
0.0063045938 0.10988529 0.32483086 -0.35873106 -0.13162954 0.28669408 0.15813293 0.08329483
0.36975193 -0.43861374 0.43396702 -0.29963982 -0.18244858 -0.40379292 -0.3795272 0.600693
0.008578443 0.027931863 0.40726316 0.26964656 -0.37955987 -0.43488836 -0.3750522 -0.204795
-0.012301609 0.34888762 0.11038448 0.3623838 -0.5817048 0.2614319 0.3548941 -0.3977612
-0.17349039 0.16372627 -0.44639304 -0.25948235 0.19219667 -0.48022565 0.97812176 0.41830564
0.65219074 -0.084085956 0.6087935 0.2646797 0.15304402 -0.23623736 -0.24242711 0.2068872
0.0026116758 0.22140108 0.5367725 -0.041401997 0.104940616 0.25716734 -0.07454419 0.551649
-0.11986543 -0.58828235 0.21607168 0.21283016 0.5777715 -0.38351268 -0.48716938 -0.32102817
-0.2825564 -0.49455026 0.3847099 -0.051903803 -0.17919354 0.24971236 0.29718226 0.76072836
00000000: 8b32 8bbd 08da c4be 5f16 e23e f530 d23e
00000010: 19af 22bf 6b43 e1be 326f 333f ef9e 91bd
00000020: a012 943e a9dc 87be 2012 07bf 6ab8 043d
00000030: 8d57 f63e 6b0e 56be 25e1 1e3f c51f 7fbe
00000040: 2991 62bd 2973 7e3e 18eb dd3e 8f17 b4bd
00000050: 54e5 c3be ab6e bbbe 7a54 8b3d 922a a9be
00000060: 025b 0dbf f054 053f d086 e6be 597c 2cbf
00000070: fe71 ab3e 6a8e b1be 4498 0c3e 61ee ed3e
00000080: 383a c13d 9177 153e 0f4a 273f deca fdbe
00000090: b5a1 a13e 8a8f 7a3e 67a0 763e ebd7 9d3e
000000a0: 102c 4c3e 6b31 28bf 51b8 d03d 6fe8 fbbe
000000b0: 6609 2d3e 15cb f0be 668f fa3d 6fbc 1c3f
000000c0: 9078 e6be 6063 88be 1a47 083f 149e 1d3f
000000d0: 52ee 043d b336 a83e 00d3 b3be 2f1c 1c3e
000000e0: f940 5ebc de2b 183f 3fd8 6abe 5d2b 753d
000000f0: 3f10 ccbe 0498 c7bd ad73 79be 5f51 f53e
00000100: 4b17 023f 9c1a f5be 69de 21be 4967 8a3e
00000110: d6af f9be cd0e c13e 791f debe 448f 463e
00000120: ce6d 993e 7925 c4be 8f1a 433e 4d50 1bbf
00000130: a2ec 4abe a191 f6be 6343 abbe 5294 74be
00000140: eb76 36bf 9dc5 a63d 39ba da3c bd6e d03e
00000150: e6e3 bc3e 0b7a ff3e 18e9 32bd fcb1 86bc
00000160: 5b55 01bf f921 e63e 054c 973e 6f04 7e3e
00000170: a9c9 753d f190 debc 76de d6be 9ecd 663d
00000180: 6c4c e3be 57c3 7fbe a2d6 693e 16e6 f2be
00000190: af99 bbbd a282 e5be 0322 283e f806 debd
000001a0: 7df2 a5be c006 a2be 4c58 1d3c 48c2 df3e
000001b0: 59a5 2a3f df6e 09bf 3d0a 1b3f 256c e23d
000001c0: bc2a 87be 0595 20bf 1bd5 943d 4118 523e
000001d0: 75bc eabe dc27 8e3d 62cc f3be 82c4 cc3d
000001e0: de4f be3e cfdd 683c 7fb5 c7be d9ff a8be
000001f0: ad7a eebe 8487 bb3e bf96 b1bb 5426 e23d
00000200: bfa0 35bf e1cc fc3d f501 c2bd 7055 12bf
00000210: 1e2b 183f b01a da3e 1d1f 1abe 793c ac3e
00000220: b2bc 96be 16ed d33e 845b 6a3e 132c af3e
00000230: 0f4b a23e 35ee 043f 15f5 c9be 4952 02bf
00000240: 51a9 f83d 473b 773d 4c5a cc3e ea3f b3bd
00000250: bca3 26be e794 3d3e 95bf ccbe 4883 19bf
00000260: 0510 253f 453a ae3e 03e9 2ebd 20fd ad3e
00000270: 6245 02be 1ece 193f bf81 aa3d 14d1 f5bc
00000280: 723f 3a3f a4a5 febe 7f92 acbe ed60 033e
00000290: 52c0 103d e04b eebd 0b0e d43e 1f9b a4be
000002a0: ae6e cc3e 27e5 22bf 2fb4 4b3f 24cc 053f
000002b0: d0c7 823d c164 c73e 9fa7 293f cc3b 0c3c
000002c0: c038 24bf b5e5 15bf 2f8e f1be 5d8c 013f
000002d0: 54a5 cb3e a84e 3bbe 7591 ccbe 3f18 0abf
000002e0: c496 ce3b 8a0b e13d 3b50 a63e 99ab b7be
000002f0: e5c9 06be 91c9 923e 99ed 213e 7b96 aa3d
00000300: 2050 bd3e fb91 e0be ed30 de3e 646a 99be
00000310: cdd3 3abe f2bd cebe 6451 c2be 04c7 193f
00000320: 998c 0c3c 5dd1 e43c cc84 d03e 1d0f 8a3e
00000330: ac55 c2be b0a9 debe d806 c0be c8b5 51be
00000340: b08c 49bc 66a1 b23e 4211 e23d 5f8a b93e
00000350: 9bea 14bf 67da 853e aeb4 b53e 5ba7 cbbe
00000360: 77a7 31be dca7 273e a18d e4be dfda 84be
00000370: 34cf 443e 23e0 f5be 3066 7a3f 282c d63e
00000380: f9f5 263f 4235 acbd e4d9 1b3f 1984 873e
00000390: 92b7 1c3e 35e8 71be d03e 78be 3dda 533e
000003a0: a628 2b3b f7b6 623e ec69 093f 2495 29bd
000003b0: 1beb d63d 70ab 833e a0aa 98bd de38 0d3f
000003c0: 027c f5bd ac99 16bf e541 5d3e 26f0 593e
000003d0: d5e8 133f c65b c4be 446e f9be ce5d a4be
000003e0: 3cab 90be b135 fdbe b2f8 c43e 1599 54bd
000003f0: 837e 37be 99b4 7f3e 4628 983e 18bf 423f

network.2.running_mean f4 [256]
0.3635854 0.5579853 0.41241285 0.38348407 0.5033341 0.46630642 0.9505589 0.66307205
0.8217276 0.9329282 0.8151992 0.6576939 0.87932104 0.41562593 0.75227165 0.36180666
0.69265366 0.8955077 0.5306425 0.87762344 0.5506436 0.39211798 0.54445696 0.49969032
0.80853915 0.49450397 0.7644494 0.74757254 0.82713383 0.4822983 0.82816964 0.57004523
0.62096953 0.55649173 1.1228089 0.34968194 0.89268327 0.7507219 1.0148343 0.69765353
0.84546596 0.20295122 0.572501 0.74906474 0.7662254 0.6530855 0.6607043 0.44596368
0.956309 0.6309333 0.82377696 0.9996727 0.5736211 0.7477474 0.49614966 0.6428557
0.75916785 0.8803598 0.4348722 1.1351255 0.67983156 0.51169986 1.0088507 0.36914662
0.28516355 0.5552454 0.4636498 0.8120664 0.52442485 0.93688726 0.37885788 0.851498
0.7776013 0.92116934 0.8314534 0.6664019 1.1994531 0.4762379 0.597082 0.8669006
0.56369007 0.6909905 0.9298804 0.8137072 0.5765906 0.7708416 1.1997774 1.0192959
0.6890931 0.3131484 0.558747 0.32809466 0.9084972 0.41318193 0.6668844 0.84118474
0.6068668 1.0541289 0.89735067 0.9786905 0.67717165 0.4648084 0.9909442 0.9654504
0.6391233 0.87888193 0.7957695 0.6642474 0.6607243 0.7384056 0.55086654 0.2791213
0.5770618 0.50285137 0.40678328 1.0690271 0.66990787 0.44250646 0.84586054 0.6471671
0.8242891 0.7288937 0.66483116 0.40406898 0.38673925 0.5840005 0.79064584 0.6291895
0.8313815 0.88224506 0.6440879 0.733766 0.64344656 0.92376775 1.0201647 0.88788587
1.2772164 0.6152557 0.6290483 0.8854129 0.49536026 0.50252974 0.59158134 0.38406432
0.88730514 0.9684896 0.61380386 0.58079785 0.51235795 0.62582046 0.36827788 0.27389565
0.9855627 0.71419835 0.65509135 0.40821648 1.0742346 0.64190954 0.56594807 0.93211824
0.9921659 0.53719646 0.6715348 1.0532486 0.86311746 0.3831036 0.90863794 0.5751395
0.71430534 0.570989 0.7688925 0.78825575 0.9387106 0.78412807 0.4539816 1.2110928
0.53754747 0.4820698 0.19249642 0.41870648 0.7620585 0.49397555 0.58670723 0.54127866
0.8741425 0.6957749 0.9099508 0.64633274 0.41542432 0.735218 1.1286786 0.7840003
0.5905757 0.51992923 0.86099815 0.7410843 0.43520093 0.26333064 0.5973535 0.56571877
0.45806497 0.79106075 0.69059134 0.73667663 0.41684285 0.60109055 0.8303575 0.49424478
1.0466733 0.74782133 0.45060378 1.1437693 0.5828723 0.9203004 0.6640518 0.6476718
0.6277565 0.6195374 0.7793793 0.8143288 1.141138 0.3534891 0.5330752 0.45497394
0.56414974 0.99128187 0.73396826 0.634935 0.49469143 0.6525718 0.8237228 0.6738288
0.7706499 0.41126302 0.5394337 0.3660192 0.52986705 0.77507883 0.6571802 0.9462186
0.650349 0.69094235 0.5984165 0.70696205 0.865218 0.37597346 1.1122556 0.6522249
0.4699377 0.504912 0.44110408 0.5405219 0.36317894 1.0917501 0.89584106 0.6650602
00000000: de27 ba3e 20d8 0e3f c727 d33e 0658 c43e
00000010: 81da 003f b7bf ee3e d457 733f 17bf 293f
00000020: bd5c 523f 62d4 6e3f e5b0 503f a15e 283f
00000030: 2f1b 613f eccc d43e e094 403f b93e b93e
00000040: c051 313f fe3f 653f 30d8 073f eeab 603f
00000050: fbf6 0c3f b0c3 c83e 8861 0b3f 69d7 ff3e
00000060: 6cfc 4e3f a02f fd3e f5b2 433f ea60 3f3f
00000070: 0bbf 533f ceef f63e ed02 543f 7cee 113f
00000080: dcf7 1e3f 3e76 0e3f 34b8 8f3f 8309 b33e
00000090: e486 643f 4f2f 403f 17e6 813f 6c99 323f
000000a0: 7570 583f 72d2 4f3e 6d8f 123f b5c2 3f3f
000000b0: 5927 443f 9c30 273f eb23 293f 5a55 e43e
000000c0: abd0 743f d884 213f 0ce3 523f 8dea 7f3f
000000d0: d5d8 123f 606c 3f3f 5407 fe3e 3192 243f
000000e0: d358 423f 435f 613f 92a7 de3e cb4b 913f
000000f0: 7109 2e3f c3fe 023f 0522 813f c900 bd3e
00000100: f500 923e 9024 0e3f 8263 ed3e 95e3 4f3f
00000110: b540 063f d8d7 6f3f a9f9 c13e c6fb 593f
00000120: e110 473f c1d1 6b3f 21da 543f 5199 2a3f
00000130: ae87 993f 74d5 f33e 5eda 183f 33ed 5d3f
00000140: fe4d 103f c1e4 303f a40c 6e3f 1d4f 503f
00000150: 719b 133f e055 453f 4e92 993f 4a78 823f
00000160: 6868 303f fd54 a03e 0b0a 0f3f 06fc a73e
00000170: 4693 683f 958c d33e f0b8 2a3f e257 573f
00000180: 9f5b 1b3f b2ed 863f c6b8 653f 768b 7a3f
00000190: 1f5b 2d3f 5efb ed3e 85ae 7d3f c227 773f
000001a0: 969d 233f 68fe 603f 8db7 4b3f 1e0c 2a3f
000001b0: 3a25 293f 2608 3d3f 9705 0d3f fde8 8e3e
000001c0: 52ba 133f deba 003f e645 d03e e1d5 883f
000001d0: 157f 2b3f 3590 e23e 518a 583f beac 253f
000001e0: 9c04 533f c798 3a3f 6032 2a3f 21e2 ce3e
000001f0: b002 c63e 0f81 153f c467 4a3f 9012 213f
00000200: 6bd5 543f d0da 613f f2e2 243f 17d8 3b3f
00000210: eab8 243f 0b7c 6c3f c294 823f 7d4c 633f
00000220: d47b a33f 6681 1d3f 4f09 213f 6baa 623f
00000230: dc9f fd3e caa5 003f e071 173f 14a4 c43e
00000240: 6e26 633f efee 773f 4022 1d3f 2baf 143f
00000250: e429 033f c535 203f eb8e bc3e 0d3c 8c3e
00000260: d64d 7c3f b4d5 363f 11b4 273f c001 d13e
00000270: 8580 893f 2f54 243f f9e1 103f 4d9f 6e3f
00000280: 96fe 7d3f b585 093f b4e9 2b3f dad0 863f
00000290: 44f5 5c3f 2826 c43e 7f9c 683f 583c 133f
000002a0: b7dc 363f 562c 123f 24d6 443f 21cb 493f
000002b0: 564f 703f 9ebc 483f 4770 e83e 1705 9b3f
000002c0: b69c 093f dad1 f63e c81d 453e b260 d63e
000002d0: 4416 433f 5dea fc3e 7232 163f 3d91 0a3f
000002e0: cec7 5f3f 4e1e 323f 89f2 683f 1076 253f
000002f0: 7fb2 d43e 3f37 3c3f 8a78 903f 3eb4 483f
00000300: f82f 173f 151a 053f 606a 5c3f b3b7 3d3f
00000310: a8d2 de3e 46d3 863e 29ec 183f f2d2 103f
00000320: 7e87 ea3e f582 4a3f 98ca 303f d796 3c3f
00000330: 6d6c d53e 12e1 193f 4f92 543f a70d fd3e
00000340: 64f9 853f 3871 3f3f 8ab5 e63e 0867 923f
00000350: 1e37 153f cf98 6b3f 4cff 293f d2cd 253f
00000360: a6b4 203f 019a 1e3f 6785 473f da77 503f
00000370: cf10 923f 86fc b43e 9e77 083f 58f2 e83e
00000380: 1e6c 103f a6c4 7d3f 58e5 3b3f 1a8b 223f
00000390: 3248 fd3e f20e 273f 7fdf 523f 0b80 2c3f
000003a0: 5049 453f 1191 d23e 5418 0a3f de66 bb3e
000003b0: 5ea5 073f 916b 463f f63c 283f 623b 723f
000003c0: 467d 263f 99e1 303f d331 193f 77fb 343f
000003d0: ed7e 5d3f 987f c03e 645e 8e3f 36f8 263f
000003e0: ad9b f03e ea41 013f 65d8 e13e a55f 0a3f
000003f0: 97f2 b93e 78be 8b3f d755 653f 6341 2a3f

network.2.running_var f4 [256]
1.1647393 0.98802775 0.39354283 0.70409185 0.9362762 0.92680615 1.299588 0.7627847
1.1722404 1.6900175 1.1224288 0.95561194 2.4106572 0.38575006 0.9519388 0.4972844
1.6870189 0.6935907 0.5578479 1.9116546 1.0980935 0.49839014 1.131486 1.092361
1.3226341 0.42119142 1.6568916 1.39399 0.96364516 1.1914535 1.5116792 0.9035462
0.8668878 0.8497515 1.5753332 0.52038556 1.3264524 1.0578272 1.8267267 0.87560076
1.0954511 0.29404575 0.6200279 1.03499 0.95075613 0.55638427 0.86280185 0.65028083
1.1636676 1.5563233 1.3460613 1.1070522 0.5705631 0.75417596 0.6516097 0.73082894
0.874647 1.1465728 0.49382347 1.9446001 1.257021 0.7341373 1.8998802 0.39557123
0.29726872 1.0878869 0.82244444 1.0082859 0.6709177 1.4891368 0.83321875 1.1520311
1.4954783 1.8640717 2.413481 1.2498156 1.6557878 0.7892215 0.81877416 0.90397036
1.141994 1.0493734 1.1547207 2.0547795 0.8462491 1.8117328 1.3201118 1.3333148
1.1614884 0.46229476 1.1898011 0.56396353 1.0031242 0.8669453 0.8358293 1.4549619
0.90262 2.118492 1.6118616 2.2838593 1.1677048 0.60797155 0.9965453 1.2422527
1.1597805 1.5914252 1.2087909 0.91564447 1.5439366 1.0906563 0.71353245 0.35114828
1.0295317 0.8498222 0.6218007 1.350813 0.6963983 0.34116608 2.4363809 0.75296164
1.283374 0.8681528 0.9114337 0.68289274 0.53776455 0.67398477 0.90076 1.3541647
1.5547559 1.1916237 1.481934 1.5127888 0.565965 1.1624411 1.404562 1.701096
1.6855682 0.8329412 0.64369 1.9779555 1.5469036 0.66804266 1.310914 0.8109496
1.1236856 1.7068403 0.82733315 1.1971442 1.0106502 0.8374249 1.0831828 0.5422488
1.1626235 0.9725099 1.4546844 0.71229005 1.3084507 1.0206068 1.0966543 1.4550881
1.4446386 1.045644 1.9094303 2.4283204 1.0013498 0.7639841 0.999959 1.074397
0.95920587 1.1789333 0.97535205 0.6244162 1.3710568 1.0371852 0.9325818 1.2891133
1.1409466 0.50975525 0.27827936 0.8399252 0.99193573 0.518554 1.0692685 0.8559349
1.1798007 1.0105175 1.0943283 1.6602316 0.59933585 1.7120177 2.2761085 1.1384839
0.47899097 0.6176907 0.9456039 1.1243681 1.1287569 0.5736737 0.6570606 0.82441384
0.68973356 0.7814244 1.1641554 1.1215489 0.4770235 0.9480176 1.2380264 0.9325506
1.1913376 1.0028628 0.75245124 1.5849583 0.5999772 1.6048044 1.0059013 0.8146642
0.90336496 0.7177206 0.9805432 1.5741723 2.1664228 0.41898125 1.0085467 0.6406804
0.5059338 1.8154618 0.7649243 0.6805587 0.88303506 0.83899075 1.1912727 0.7247383
1.4737594 0.36603925 0.7998761 0.4129778 0.89959145 0.8924086 0.7284026 1.0694138
1.104913 0.8656027 1.2674581 0.90715325 1.3659267 0.49865937 1.9961656 1.3933136
0.82044804 0.8230564 0.48624206 1.228055 0.4118245 1.5116737 1.0761788 0.64137477
00000000: 2d16 953f 63ef 7c3f 727e c93e 5d3f 343f
00000010: ccaf 6f3f 2b43 6d3f e658 a63f dc45 433f
00000020: f90b 963f 7e52 d83f bfab 8f3f fca2 743f
00000030: 3548 1a40 0881 c53e 43b2 733f 109c fe3e
00000040: 3cf0 d73f 298f 313f 1fcf 0e3f 19b1 f43f
00000050: 548e 8c3f fe2c ff3e 89d4 903f 7cd2 8b3f
00000060: 134c a93f 67a6 d73e 0615 d43f 446e b23f
00000070: 73b1 763f 8c81 983f b47e c13f ce4e 673f
00000080: 5cec 5d3f 5089 593f 85a4 c93f fd37 053f
00000090: 31c9 a93f e266 873f 2ed2 e93f 5f27 603f
000000a0: be37 8c3f 2a8d 963e 26ba 1e3f 8d7a 843f
000000b0: c164 733f 336f 0e3f 95e0 5c3f ce78 263f
000000c0: 0ff3 943f 9a35 c73f bd4b ac3f e3b3 8d3f
000000d0: 6c10 123f ad11 413f e5cf 263f 9b17 3b3f
000000e0: dee8 5f3f e6c2 923f 6ed6 fc3e a8e8 f83f
000000f0: 10e6 a03f 6cf0 3b3f 462f f33f 5088 ca3e
00000100: 9b33 983e e13f 8b3f b88b 523f 830f 813f
00000110: 43c1 2b3f 099c be3f d34d 553f c175 933f
00000120: d56b bf3f e799 ee3f 7976 1a40 f5f9 9f3f
00000130: dbf0 d33f 6c0a 4a3f 2f9b 513f 9a6a 673f
00000140: dc2c 923f de51 863f e3cd 933f 8281 0340
00000150: c8a3 583f dce6 e73f 6cf9 a83f 0faa aa3f
00000160: a7ab 943f e6b1 ec3e 674b 983f ea5f 103f
00000170: 6066 803f 21f0 5d3f e9f8 553f 313c ba3f
00000180: 1b12 673f 5f95 0740 7b51 ce3f c02a 1240
00000190: 5a77 953f 06a4 1b3f 981d 7f3f 2302 9f3f
000001a0: b073 943f d2b3 cb3f a9b9 9a3f ad67 6a3f
000001b0: b79f c53f a09a 8b3f 10aa 363f b5c9 b33e
000001c0: b2c7 833f f38d 593f 552e 1f3f 71e7 ac3f
000001d0: 2947 323f 52ad ae3e aaed 1b40 18c2 403f
000001e0: 9945 a43f 433f 5e3f b853 693f 0fd2 2e3f
000001f0: f0aa 093f 448a 2c3f 3598 663f 4555 ad3f
00000200: 3e02 c73f 2087 983f 03b0 bd3f 10a3 c13f
00000210: 15e3 103f dfca 943f b0c8 b33f 84bd d93f
00000220: b3c0 d73f a23b 553f dec8 243f a52d fd3f
00000230: f000 c63f d804 2b3f 08cc a73f 659a 4f3f
00000240: eed4 8f3f be79 da3f 1bcc 533f 053c 993f
00000250: fc5c 813f 7a61 563f bca5 8a3f d1d0 0a3f
00000260: d9d0 943f 69f6 783f 1933 ba3f a458 363f
00000270: 507b a73f 3ea3 823f 2b5f 8c3f 5440 ba3f
00000280: ebe9 b83f aad7 853f 3668 f43f 9a69 1b40
00000290: 3b2c 803f 7694 433f 50fd 7f3f d785 893f
000002a0: 848e 753f 49e7 963f acb0 793f bdd9 1f3f
000002b0: ca7e af3f 7cc2 843f aebd 6e3f aa01 a53f
000002c0: 8a0a 923f 527f 023f a27a 8e3e 5705 573f
000002d0: 80ef 7d3f f4bf 043f cadd 883f 8d1e 5b3f
000002e0: b603 973f a358 813f f312 8c3f 7882 d43f
000002f0: 136e 193f 6523 db3f c3ab 1140 d7b9 913f
00000300: 4e3e f53e fa20 1e3f 1913 723f 4beb 8f3f
00000310: 1b7b 903f 48dc 123f 2035 283f c90c 533f
00000320: 6192 303f 6e0b 483f 0b03 953f ea8e 8f3f
00000330: 6d3c f43e 48b1 723f a677 9e3f a3bb 6e3f
00000340: c07d 983f cf5d 803f a5a0 403f eadf ca3f
00000350: 1b98 193f 3b6a cd3f 60c1 803f d58d 503f
00000360: ed42 673f 8abc 373f e104 7b3f 7a7e c93f
00000370: aca6 0a40 b684 d63e 0f18 813f a103 243f
00000380: e184 013f 0d61 e83f 14d2 433f 1839 2e3f
00000390: 960e 623f 19c8 563f a07b 983f 7388 393f
000003a0: 26a4 bc3f 7f69 bb3e aec4 4c3f d471 d33e
000003b0: a04b 663f e474 643f 9878 3a3f 8de2 883f
000003c0: ca6d 8d3f 2398 5d3f 113c a23f 323b 683f
000003d0: b0d6 ae3f 4850 ff3e 5b82 ff3f 1a58 b23f
000003e0: e208 523f d3b3 523f b8f4 f83e e830 9d3f
000003f0: a9da d23e 867e c13f 3ac0 893f 2331 243f

network.4.weight f4 [128, 256]
0.22997263 -0.12669675 0.18519168 -0.18377918 -0.22508426 -0.044869933 0.12735675 0.017059237
-0.16478196 0.25368804 0.18047209 0.19798413 -0.31671494 0.04871455 -0.044274233 -0.18451197
0.0070764287 -0.018909851 0.194451 -0.4400747 0.25576973 -0.3810047 0.26957116 -0.11720408
0.00381713 0.08889236 -0.2287487 -0.029741399 -0.6166173 -0.02084572 -0.108884566 -0.18213202
-0.5852715 0.0928573 -0.22591393 -0.09244405 0.24566278 -0.3004828 0.058196038 0.034909356
0.37342247 -0.19040823 0.27745757 0.38603017 0.2726525 -0.12717658 0.4314016 -0.15644504
0.31648943 0.25400192 -0.053542063 -0.008872241 0.08002637 -0.2960789 0.24665058 0.10564706
0.41135854 0.30108753 0.46571696 -0.21559636 0.04106404 -0.41406658 0.07559759 -0.2761497
0.16076088 0.06602893 -0.23588431 0.19618094 0.5285411 0.24904054 0.1330601 0.36801758
0.09398376 -0.14320071 0.1472747 0.10884506 0.24883652 -0.018858347 -0.32990947 0.18586479
-0.21939544 -0.03703889 0.08755836 0.165179 -0.19515643 0.118672 0.3105385 0.3993496
0.23980206 -0.67108524 -0.12777942 -0.21461913 0.22285278 -0.46685356 -0.21586241 0.025296802
-0.33027443 -0.09517154 0.43235242 -0.297734 -0.1357456 0.22854188 -0.20138597 0.40680796
0.0339465 -0.05693863 -0.12950923 -0.17216088 -0.36728913 0.13643903 0.03893738 0.14323753
-0.34377784 0.11541581 0.5923529 0.16537412 0.101028696 0.2322226 -0.1813283 -0.040105864
0.15891439 -0.1046497 0.21235214 -0.36652187 -0.027885605 0.20844437 0.14650187 -0.07109173
-0.00041170465 -0.41239128 0.024622265 -0.13209315 -0.40396968 0.059971355 -0.18085513 0.18508856
0.03365385 0.22647984 -0.14547153 -0.3885259 -0.23469004 -0.20680496 -0.4403478 -0.005236939
0.15190764 -0.049516495 -0.108564496 0.06453499 0.06733665 0.5405229 -0.28147486 -0.17602636
-0.05135822 0.19212027 -0.07380787 -0.2973969 0.3103866 -0.09610726 -0.30474216 0.45747086
0.08118393 -0.074833676 0.19340219 -0.4039848 -0.3100201 -0.56122065 0.0746223 0.24472418
0.4371835 0.060187344 -0.100262165 -0.058532313 -0.18089823 0.19576316 0.1278206 -0.15697439
0.03658873 0.06917764 0.10982594 -0.036802143 0.19057389 0.032626707 -0.010522938 0.120490186
0.16021453 0.33344558 0.40877953 -0.16904998 -0.32917964 0.29916105 -0.19002083 0.18577029
0.04534346 -0.039438687 0.14057104 -0.024781864 -0.4075712 -0.34953076 -0.3036976 -0.018581718
0.22095121 -0.13590497 0.15403269 0.01092293 0.0359588 -0.3354742 0.055601288 0.07087665
0.32634732 0.12446136 -0.44158134 0.08133248 0.05159421 0.035833158 0.29169953 0.09790291
0.25743058 0.43776453 0.12088841 -0.3277325 -0.626257 -0.085335955 -0.25353757 -0.31075728
-0.007108757 0.0070881266 0.21412417 -0.07324091 0.0036335853 0.18494399 -0.51832443 -0.15926777
0.24789402 0.065736964 0.4117507 0.041262068 0.056910075 -0.066074006 0.33834317 0.014133292
-0.22385213 -0.19030282 0.09878333 0.22166571 0.17409363 -0.053434007 0.054308515 -0.081491455
-0.55498946 -0.1500832 0.014358256 -0.19721055 -0.6657946 -0.09732116 -0.08917748 0.3144319
00000000: f27d 6b3e cbbc 01be e3a2 3d3e 9c30 3cbe
00000010: 7d7c 66be 89c9 37bd cf69 023e d0bf 8b3c
00000020: 9abc 28be 66e3 813e adcd 383e 5abc 4a3e
00000030: 7628 a2be e888 473d e658 35bd b5f0 3cbe
00000040: 63e1 e73b d5e8 9abc 2a1e 473e 7951 e1be
00000050: 40f4 823e 0c13 c3be 3b05 8a3e b108 f0bd
00000060: d128 7a3b 330d b63d 193d 6abe 3ca4 f3bc
00000070: a2da 1dbf a5c4 aabc dffe debd d180 3abe
00000080: 5ad4 15bf f82b be3d fb55 67be 4e53 bdbd
00000090: 068f 7b3e e2d8 99be f85e 6e3d 1dfd 0e3d
000000a0: 3b31 bf3e 60fa 42be eb0e 8e3e bfa5 c53e
000000b0: 1c99 8b3e 943a 02be ace0 dc3e 2133 20be
000000c0: e70a a23e 8a0c 823e ec4e 5bbd e05c 11bc
000000d0: dee4 a33d a797 97be f891 7c3e 7c5d d83d
000000e0: 969d d23e 2528 9a3e 7472 ee3e 4bc5 5cbe
000000f0: c432 283d 8900 d4be e9d2 9a3d 7e63 8dbe
00000100: 809e 243e 2d3a 873d a88b 71be a8e3 483e
00000110: 784e 073f 7c04 7f3e e840 083e cd6c bc3e
00000120: 8f7a c03d 35a3 12be 2ecf 163e 29ea de3d
00000130: 00cf 7e3e d27c 9abc e5e9 a8be 5753 3e3e
00000140: 33a9 60be 17b6 17bd cc51 b33d af24 293e
00000150: 16d7 47be 4e0a f33d e7fe 9e3e 8d77 cc3e
00000160: ac8e 753e 3ecc 2bbf 9cd8 02be 1ec5 5bbe
00000170: 8533 643e 6e07 efbe 090b 5dbe 3d3b cf3c
00000180: bb19 a9be 4ce9 c2bd 4c5d dd3e 9770 98be
00000190: e500 0bbe e206 6a3e 2038 4ebe 2249 d03e
000001a0: 7c0b 0b3d 7b38 69bd 119e 04be f14a 30be
000001b0: 520d bcbe acb6 0b3e cd7c 1f3d dcac 123e
000001c0: a603 b0be 205f ec3d 71a4 173f d557 293e
000001d0: 22e8 ce3d c3cb 6d3e 20ae 39be 0c46 24bd
000001e0: 74ba 223e 9552 d6bd d772 593e c1a8 bbbe
000001f0: 5a70 e4bc 7172 553e 9604 163e 8a98 91bd
00000200: 10da d7b9 f324 d3be a2b4 c93c 6d43 07be
00000210: 1dd5 cebe 86a4 753d 1632 39be db87 3d3e
00000220: 9fd8 093d 55ea 673e 7df6 14be deec c6be
00000230: 9652 70be aec4 53be 4475 e1be a19a abbb
00000240: ad8d 1b3e cfd1 4abd 1057 debd ec2a 843d
00000250: cce7 893d b55f 0a3f 791d 90be 4140 34be
00000260: ff5c 52bd 2dbb 443e 9528 97bd 6844 98be
00000270: feea 9e3e e2d3 c4bd 2a07 9cbe 9f39 ea3e
00000280: c343 a63d 6642 99bd 390b 463e 19d7 cebe
00000290: f4ba 9ebe 28ac 0fbf 94d3 983d fa98 7a3e
000002a0: 84d6 df3e 0187 763d 4056 cdbd 94bf 6fbd
000002b0: 633d 39be 2376 483e 67e3 023e e5bd 20be
000002c0: 10de 153d 02ad 8d3d 6cec e03d d8bd 16bd
000002d0: cd25 433e 95a3 053d 6768 2cbc 8fc3 f63d
000002e0: 470f 243e 61b9 aa3e 8d4b d13e 701b 2dbe
000002f0: 3c8a a8be a32b 993e d294 42be 913a 3e3e
00000300: 10ba 393d 768a 21bd dbf1 0f3e 5603 cbbc
00000310: 2cad d0be b2f5 b2be 407e 9bbe b038 98bc
00000320: 0941 623e ac2a 0bbe bfba 1d3e 17f6 323c
00000330: 8949 133d 46c3 abbe 2dbe 633d c727 913d
00000340: ff16 a73e 99e5 fe3d f316 e2be a591 a63d
00000350: 7354 533d cac5 123d a459 953e 5281 c83d
00000360: f1cd 833e ac22 e03e 5894 f73d 8ecc a7be
00000370: 6152 20bf 9ec4 aebd adcf 81be 941b 9fbe
00000380: 93f0 e8bb 8443 e83b 5e43 5b3e 55ff 95bd
00000390: 7221 6e3b f561 3d3e e9b0 04bf 1717 23be
000003a0: eed7 7d3e 1aa1 863d fdd0 d23e 6a02 293d
000003b0: 8a1a 693d cf51 87bd 513b ad3e 538f 673c
000003c0: 7e39 65be bede 42be ea4e ca3d 56fc 623e
000003d0: 9a45 323e 9edd 5abd 9b72 5e3d fee4 a6bd
000003e0: ca13 0ebf 69af 19be e43e 6b3c 90f1 49be
000003f0: 8471 2abf 5150 c7bd afa2 b6bd 38fd a03e

network.4.bias f4 [128]
-0.011855576 0.42924014 0.33710897 0.3252614 -0.15932962 -0.17192835 0.39623457 -0.115574
-0.17839448 1.0974851 0.08735119 -0.7985493 0.66870296 0.3191435 -0.36913827 0.0014305469
-0.10259313 0.020493384 0.11610209 0.56056607 -0.583393 0.11926082 0.5373274 -0.5167273
-0.4739771 -0.46591163 0.12789004 0.696283 0.19474737 -0.07944452 -0.009293222 0.32290316
0.17844538 0.28493807 0.024403833 0.4012286 0.27593032 0.4102591 -0.9492244 -0.15241422
-0.29303584 0.0536274 0.4967631 0.2640554 0.27722844 0.7782548 0.51798975 0.15558217
0.96983576 0.05371987 0.16494325 0.028062923 -0.22467136 0.038742907 0.06633194 -0.36924085
0.5310875 0.14651856 -0.49274558 0.022886397 0.4769377 0.5260934 0.18800212 0.3459617
-0.26422584 0.29948574 -0.1552005 0.14632304 0.6526568 0.20225407 -0.17203832 -0.19795309
0.39957047 -0.15657768 -0.28955024 0.47663113 -0.04770832 -0.1329388 0.11861729 0.5404557
0.39359596 -0.050500397 0.330026 0.5362245 0.050368067 0.22424251 0.027779004 -0.47486126
0.5803397 0.05859699 0.06513387 0.49157876 0.24873292 -0.8830496 -0.2979722 -0.03755988
0.6006025 1.0649431 0.52581084 0.11466404 -0.3914105 0.025440896 0.28333637 0.92644286
-0.041545622 0.8644619 -0.115881294 -0.05370031 0.08033697 -0.051520612 -0.29160184 0.77552724
-0.17060705 -0.30492502 -0.31743908 -0.025108216 0.22382142 0.5149573 0.30156782 0.3028955
0.46170226 -0.14077304 0.2813375 -0.5546118 0.1710566 -0.3579774 0.49309412 0.42936116
00000000: e43d 42bc 5dc5 db3e 8c99 ac3e aa88 a63e
00000010: 4e27 23be fc0d 30be 42df ca3e 10b2 ecbd
00000020: 0bad 36be 647a 8c3f 2ee5 b23d ba6d 4cbf
00000030: 1e30 2b3f c766 a33e b1ff bcbe 3081 bb3a
00000040: 591c d2bd bee1 a73c efc6 ed3d 4281 0f3f
00000050: 3e59 15bf 043f f43d 4a8e 093f 3e48 04bf
00000060: 20ad f2be f88b eebe 9bf5 023e 9a3f 323f
00000070: db6b 473e cfb3 a2bd 9942 18bc 9053 a53e
00000080: 63ba 363e 67e3 913e 8cea c73c d66d cd3e
00000090: bd46 8d3e 7b0d d23e 5f00 73bf 7912 1cbe
000000a0: cb08 96be 68a8 5b3d bc57 fe3e 4532 873e
000000b0: e3f0 8d3e b53b 473f fa9a 043f ef50 1f3e
000000c0: 2847 783f 5e09 5c3d e2e6 283e 37e4 e53c
000000d0: 4010 66be e2b0 1e3d 0ad9 873d 230d bdbe
000000e0: 5af5 073f f608 163e 2649 fcbe 417c bb3c
000000f0: 2e31 f43e 0fae 063f a183 403e e421 b13e
00000100: 9c48 87be 3256 993e e1ec 1ebe b5d5 153e
00000110: 8414 273f b11b 4f3e d02a 30be 37b4 4abe
00000120: 8094 cc3e e655 20be ee3f 94be ff08 f43e
00000130: cd69 43bd 1c21 08be 9fed f23d 4e5b 0a3f
00000140: 6985 c93e 81d9 4ebd 2bf9 a83e 0246 093f
00000150: bf4e 4e3d d49f 653e cb90 e33c 0421 f3be
00000160: 2591 143f 6603 703d e864 853d 36b0 fb3e
00000170: d8b3 7e3e 8a0f 62bf d08f 98be 64d8 19bd
00000180: 16c1 193f 0e50 883f 8a9b 063f fbd4 ea3d
00000190: f566 c8be 6d69 d03c 7711 913e 5c2b 6d3f
000001a0: be2b 2abd 604d 5d3f 2c53 edbd dbf4 5bbd
000001b0: b687 a43d 4707 53bd d64c 95be f488 463f
000001c0: 9db3 2ebe 221f 9cbe 6087 a2be bfaf cdbc
000001d0: 7131 653e 3ed4 033f 1967 9a3e 1e15 9b3e
000001e0: 3d64 ec3e cf26 10be 780b 903e 0afb 0dbf
000001f0: 7629 2f3e d048 b7be d576 fc3e 3ad5 db3e

network.6.weight f4 [128]
0.81488925 1.0071073 0.68903166 0.0784505 0.56735617 0.7833752 0.5049293 0.61618227
1.3833709 0.90566164 0.6701699 1.0741446 0.59382755 0.6040263 0.3707105 0.9551666
0.9222573 0.34582174 1.2654587 1.1744775 0.64954394 0.44567096 0.4779209 0.86582863
0.5131607 0.9510355 0.66010946 0.84575117 1.0785904 0.9650617 0.8357176 0.09414634
0.8615969 1.1153281 0.3798498 0.99340975 0.77893347 1.0085597 1.2564168 0.29688433
0.7327609 0.7999696 0.76949376 0.87779063 0.0771946 0.6841486 0.24649566 0.07828002
0.44001377 0.8849903 1.0556068 0.77300406 0.6251829 0.5201478 0.75302035 0.60589033
0.8638921 0.26518673 0.9949757 0.7431632 0.4101042 0.3625403 0.5641601 0.8753592
-0.1805724 0.5019903 1.1243081 0.19736028 0.83335406 0.82156265 0.8650105 0.8822508
1.2639644 0.89496994 1.0817372 0.4151863 -0.083810955 0.65344125 1.2008548 0.08004916
0.3800018 0.117395476 0.86256707 0.7843296 0.35556817 0.7920608 0.914837 0.6543833
1.0890635 1.0099541 1.0283797 0.54963315 0.69309217 0.44694355 0.49694157 1.0198385
0.88959646 0.74425906 0.5345673 0.94094795 1.0421654 0.8448664 0.49942178 0.37823957
0.49581036 0.85379535 0.6091148 0.40382206 0.71486276 0.47135708 0.6393721 0.6487615
0.4479384 0.7824928 0.4183669 0.40374756 0.6084006 0.6328623 0.5433875 0.8771775
1.0573392 0.8263128 0.2570288 0.011663518 0.049362775 0.69144577 0.59649456 0.82853967
00000000: 959c 503f e4e8 803f 6164 303f a8aa a03d
00000010: 413e 113f 478b 483f 0c43 013f 1fbe 1d3f
00000020: 4c12 b13f 71d9 673f 4190 2b3f 927d 893f
00000030: 1505 183f 78a1 1a3f c4cd bd3e cc85 743f
00000040: 0e19 6c3f 8c0f b13e 8dfa a13f 4755 963f
00000050: 8348 263f fc2e e43e 0cb2 f43e f2a6 5d3f
00000060: 805e 033f 1077 733f effc 283f 2683 583f
00000070: 400f 8a3f 490e 773f 97f1 553f cccf c03d
00000080: 9d91 5c3f 12c3 8e3f ac7b c23e 1a50 7e3f
00000090: 2f68 473f 7c18 813f 44d2 a03f 3901 983e
000000a0: 3896 3b3f cfca 4c3f 8bfd 443f e3b6 603f
000000b0: 3418 9e3d 5d24 2f3f 5c69 7c3e 4651 a03d
000000c0: 7c49 e13e b98e 623f 201e 873f 98e3 453f
000000d0: fd0b 203f 6828 053f f1c5 403f a11b 1b3f
000000e0: 0828 5d3f 8ec6 873e bab6 7e3f f23f 3e3f
000000f0: 2df9 d13e e29e b93e cc6c 103f 8a17 603f
00000100: f9e7 38be 7082 003f 54e9 8f3f d018 4a3e
00000110: b156 553f ee51 523f 5471 5d3f 30db 613f
00000120: 96c9 a13f c01c 653f 5d76 8a3f 4c93 d43e
00000130: 14a5 abbd ed47 273f 9cb5 993f d0f0 a33d
00000140: 998f c23e 0a6d f03d 32d1 5c3f d3c9 483f
00000150: 080d b63e 7fc4 4a3f c232 6a3f aa85 273f
00000160: 6f66 8b3f 2d46 813f f2a1 833f c2b4 0c3f
00000170: 7d6e 313f c9d5 e43e 206f fe3e 118a 823f
00000180: 98bc 633f c387 3e3f 67d9 083f f7e1 703f
00000190: ad65 853f 2a49 583f 36b4 ff3e 9ea8 c13e
000001a0: dbda fd3e 5592 5a3f f3ee 1b3f c4c1 ce3e
000001b0: 3f01 373f b755 f13e e4ad 233f 3c15 263f
000001c0: 2f58 e53e 7351 483f 3034 d63e 00b8 ce3e
000001d0: 24c0 1b3f 4403 223f 711b 0b3f b48e 603f
000001e0: e456 873f 3c89 533f 4799 833e 5718 3f3c
000001f0: 9f30 4a3d 9702 313f deb3 183f 2d1b 543f
